scripts_training/model.ckpt (torch, 223695 bytes, 104 tensors)

model.fake_node f4 [1, 32]
00000000: 0297 903f ac4a 5b3d 7fa0 73bf 0ee6 25bf
00000010: ac06 733f 4b92 433c e804 973d 4881 4fbf
00000020: ac9b 353f 2ef5 663f 5e52 353f e132 0e3f
00000030: 78c6 503f 3b77 10bf 5091 7f3f 3112 783f
00000040: 77d0 fb3e ad01 a7bf cd80 1e3d 3079 733f
00000050: 5937 a9bf 9bee 99bd a317 f9be e992 bdbf
00000060: f305 003f dc8c 91bf 8851 a5bf 9ab9 c9be
00000070: 9b37 e7be b850 cebe c24d a5bf ff3a 8bbd
1.1296084 0.05353801 -0.9516677 -0.6480416 0.94932055 0.011936734 0.07373983 -0.8105664
0.7094066 0.90217865 0.7082881 0.55546385 0.8155284 -0.5643193 0.99831104 0.9690276
0.49182484 -1.3047386 0.038697053 0.9510679 -1.3220016 -0.075162135 -0.48650846 -1.4810458
0.5000908 -1.1371112 -1.2915506 -0.39399415 -0.4515961 -0.4029596 -1.2914355 -0.06798362

model.node_embedding f4 [100, 16]
00000000: 74e6 c4bf cb32 18be 722f 193c 93b8 98bf
00000010: 1d91 bc3d 4c24 a63f 6fb9 08bf a62d 66bf
00000020: 1c92 d3bf c274 2bbc 15de 8f3e b3f3 95be
00000030: 1648 2840 761c 4a3f daec a63f 3b31 2a3f
00000040: 6508 293d 9a91 5c3e 34e7 943f ebd4 fa3f
00000050: 81e9 ee3e 5f6a 863e db1e 893f 4922 0ebf
00000060: 03ff ce3e 8e26 563d 53da 893f 40d8 733e
00000070: 22cc a5be aad5 f23e 5d22 7d3f 31b0 ac3e
00000080: bc5a b53f 6793 a3bf c920 3d3f ce20 923e
00000090: b8dd 653f 964c f4be 26dd b83e 570f 443f
000000a0: 4133 a73e def3 9f3f a224 223f 2ac2 aebe
000000b0: 4781 ea3f bd70 2f3f 31b8 eebe f94e 15c0
000000c0: d4ad ebbd b6a6 85be 7109 c93d fdaa 5f3d
000000d0: f025 89bf 405d 0f3f 6606 39bf 2b74 5bbd
000000e0: b425 ab3f 76be 793e 3b1b 75bf 1ee4 0abf
000000f0: 264f 98bb c654 8dbf 488b b7bf d906 8b3e
00000100: 1844 4dbe f4b4 0440 e7d4 8fbf c7d9 293f
00000110: 974e 9a3e 9fd7 8b3d 83de a63d 33fb 1abe
00000120: cdcc bf3f 3859 1cbf 813c f0bf 544c 003f
00000130: 9126 a5bd 9758 97bf 4c45 efbe 62e7 abbe
00000140: 7a0f a43f 8787 973f eec0 d23d e06a 02be
00000150: 00ea a13d a840 ee3e f954 67bf 6002 a43d
00000160: d0c8 d83e e3bb bebf b6ab 95bf c74d 933f
00000170: 5556 2b3f 49e0 f5bf 8531 fbbe ec11 f0bf
00000180: 7df0 c5bf 2420 963e 4496 d5be 1165 233e
00000190: e21f 5abf 0458 6ebf 6b01 87be 8b65 ac3d
000001a0: b8df b3be 5e94 fb3d 2d2e 803f 88ff 16bf
000001b0: be5a e83e e7e8 da3f 6d10 bc3f 86f7 05bf
000001c0: 4bbf 873f 87fd 373f 4b73 043f b717 51be
000001d0: c891 913f c02b 013f 05dc ea3e e00e 67bf
000001e0: b123 27bf d251 5c3d f591 dfbe 15dd 3cbf
000001f0: 177d 7b3f 869b 67be 69f5 883e b003 ca3e
00000200: ea3b ba3d 0d17 2e3e ac76 953e 4a45 a03e
00000210: b9f4 d7be ca69 adbf 5ac2 c5be 0d72 c73d
00000220: f2ad 663e 608f d0bf f028 8e3f cbec 4bbf
00000230: e0af ac3f 91bf eebf c754 cd3f 4718 883f
00000240: 6284 433f 8953 a9bf 2d72 813f 61c1 8bbf
00000250: 542e 54bf f0d9 38bf 843f fcbe 8a40 703e
00000260: b948 cfbf 9eaa 543f a27f 39bf 8574 eabf
00000270: b4b6 b6bf 8398 ba3f dbd9 2d3f f428 4b3e
00000280: c0ff 1ebf 3812 94be 30b7 de3f 1f9e c03e
00000290: 3900 f4bd 8ef1 a73f c50d 87bd 867f 033f
000002a0: 12d5 c9bf a6d4 733f 2fea a03f 79b4 ab3d
000002b0: daba 4240 999e db3c 21c9 ec3f cdd2 a23e
000002c0: 0949 4e3e 26b4 e4bd 2d54 7b3f f1d2 c23d
000002d0: 5dd0 82be 0ef9 0dbf 7b78 0c40 778c 07c0
000002e0: 1d9b a5bf 95ae ff3f 643b ab3f c7c3 0ac0
000002f0: 1800 f83e 64b7 fcbf d98f 76bf 2bbc cbbe
00000300: 4179 e8be f2f2 4d3f 9a3b 9cbe b3c3 fdbe
00000310: 7138 1c3e aebc 0ebf 268a ae3f e350 953f
00000320: d256 e3be d886 053f 10f6 23bf 28ff af3f
00000330: 8ca4 313f 9273 2abf 9117 c43f f013 89be
00000340: 001d 803f 8bfc f43d ceae c8bf c721 f23e
00000350: ba5b 0840 a756 413f 0977 df3e e1ce 00c0
00000360: 3403 973e 377f 1ebf 332a 1fbf a207 c4bf
00000370: 0aca 1cbe 80fb 14be bbee f7bf 5dec 4fbf
00000380: db1d 823f 33bb 983f a744 1f3e 3c4b a13d
00000390: d98a 703f c56a db3e 39fd 283f 6005 773e
000003a0: 6c69 d23e 23fa febe fef7 213f 8e28 2dc0
000003b0: e5c5 c9be 33ee 133f f4f6 6b3e fc3c a23e
000003c0: 3e63 ccbe d890 6fbf d99c f53f e2a0 cebe
000003d0: 824c 813e bbde 983f 75af 3fbe 97b5 8f3f
000003e0: 508e 9dbf 06de e3bf 0261 303f d3ab 0fc0
000003f0: e0da 953f 7468 8e3f d3ee 313f 0c6b 3e3f
-1.5382829 -0.14863126 0.009349691 -1.1931328 0.09207366 1.2979827 -0.5340795 -0.89913404
-1.6528964 -0.010464849 0.28099123 -0.2928749 2.6293998 0.7894968 1.3041031 0.6648137
0.04126777 0.21539918 1.1633058 1.9596227 0.46662524 0.2625303 1.0712541 -0.55521065
0.40428934 0.052282862 1.0769752 0.23812962 -0.32382303 0.47428638 0.9888056 0.33728173
1.4168315 -1.2779359 0.7387815 0.28540653 0.8979144 -0.4771468 0.36106223 0.76585907
0.3265629 1.2496297 0.6333715 -0.3413251 1.8320702 0.685314 -0.46624902 -2.332945
-0.115077645 -0.26103753 0.09816254 0.054606427 -1.0714703 0.56001663 -0.7227539 -0.053577583
1.3370881 0.24389061 -0.95744675 -0.5425433 -0.004648107 -1.1041496 -1.433938 0.27153662
-0.20045507 2.0735445 -1.1236848 0.66347927 0.30138084 0.06828236 0.081479095 -0.15134887
1.4984375 -0.61073637 -1.8768464 0.5011647 -0.080639966 -1.182391 -0.46732557 -0.3357497
1.2817223 1.1838235 0.10290705 -0.12736082 0.0790596 0.46533704 -0.90364033 0.080082655
0.42340708 -1.4901088 -1.1693027 1.1508111 0.6692861 -1.9209071 -0.49061218 -1.8755469
-1.5464016 0.29321396 -0.41716206 0.15956523 -0.852049 -0.9310305 -0.2636827 0.08417805
-0.3513162 0.12284158 1.0014092 -0.5898366 0.4538173 1.7102326 1.4692513 -0.52330816
1.0605253 0.7187123 0.51738423 -0.20419203 1.1372614 0.5045738 0.45870987 -0.9025707
-0.65288836 0.053788967 -0.43666044 -0.73774844 0.98237747 -0.22617921 0.26749733 0.39455938
0.09093459 0.1700098 0.29192102 0.31302863 -0.42178896 -1.3547909 -0.3862484 0.0973855
0.22527292 -1.6293755 1.1106243 -0.7965819 1.3491173 -1.8652211 1.6041497 1.0632409
0.76373875 -1.3228618 1.0112969 -1.091839 -0.8288319 -0.72207546 -0.4926721 0.2346212
-1.6194068 0.8307284 -0.7246038 -1.8316809 -1.4274507 1.4577793 0.67910546 0.19839841
-0.62108994 -0.2892015 1.7399654 0.37620637 -0.11914105 1.3120592 -0.06594423 0.5136646
-1.5768149 0.9524635 1.2571467 0.08384032 3.0426545 0.026809024 1.849888 0.31801453
0.20145048 -0.11167173 0.9817532 0.0951289 -0.25549594 -0.5545815 2.1948535 -2.1179483
-1.2937962 1.9975153 1.33775 -2.1681993 0.48437572 -1.9743466 -0.96313244 -0.39791998
-0.4540501 0.8044883 -0.30514222 -0.4956337 0.15255906 -0.5575665 1.363591 1.166531
-0.44402176 0.5215888 -0.64047337 1.3749743 0.69391704 -0.66582596 1.5319692 -0.26773024
1.000885 0.11962231 -1.5678346 0.47291395 2.1305985 0.75522846 0.43645504 -2.012627
0.2949463 -0.61912864 -0.62173766 -1.5314829 -0.15311447 -0.14549065 -1.936973 -0.81220037
1.0165361 1.1932129 0.15553533 0.07875678 0.93961865 0.42854896 0.6601139 0.24123144
0.41096056 -0.49800214 0.6326903 -2.7056003 -0.39408794 0.5778534 0.23043424 0.31687152
-0.39919466 -0.9358039 1.9188491 -0.4035712 0.25253683 1.1942972 -0.18719275 1.1227292
-1.2309055 -1.7802131 0.6889802 -2.2448623 1.170742 1.1125627 0.6950504 0.7438209

model.encoder.model.0.weight f4 [32, 17]
00000000: e9fd 6d3e 159c 083e 86c1 643e 0c14 ffbc
00000010: 5188 c8bd efc6 c63d 23af 5dbe 7a89 b23d
00000020: b74a 59be ff23 3a3e fd2b ab3d 459d 353d
00000030: eb50 963c 6733 0c3d 7a1a b6bd f4d9 373e
00000040: 4ef5 35bd 2cab cfbd df7a d5bd 14c2 2bbe
00000050: df40 a73c 26f2 59be e983 3cbe 1d51 50be
00000060: 53a6 86bd 792f 00be a489 323e 20e3 273e
00000070: 5d05 54be f74c c03c 8bab 8ebd 59b8 913d
00000080: 16af 773e 40ec 0d3e aeb1 0bbe 1fd1 6fbc
00000090: 505c 0c3e 0318 0dbe 0b71 10be e9af a4bd
000000a0: 6f14 31be 23f6 7abd 1108 58be 9364 a23d
000000b0: a763 17bd c7cf cebd d036 153d ff46 4fbe
000000c0: 25b7 f2bd ea47 e23d 143c 0fbe c108 733d
000000d0: e645 903d cfad 66be 251c 7e3d 2e2a 613e
000000e0: 456f 763c 7dfd 60b9 5f8b 4f3e 9dbc b33d
000000f0: 667c 773d 6d2c d8bd 0594 f2bd a662 07be
00000100: f749 b23d 9134 5fbe 7170 243e 6053 553e
00000110: 9c93 343e 2c72 403e b47f b63d c8b5 65be
00000120: 354f 653e 19b9 1dbd 56bc aebb 44fa 60bc
00000130: a7dc 6f3e 0ff9 fabd f3f9 643e 4c4f 97bc
00000140: ec82 4dbe d60b 073c c87b d53b 0ea8 34bd
00000150: 9ded 473e 9ec5 0cbe e79b 29bd abb0 403d
00000160: 0af6 6e3e 93b0 6d3e dbfb abbd 0923 333e
00000170: 3d17 73be e74f 7f3e 9982 fabd 4a0b 2bbe
00000180: f553 583e c611 10be b4b1 95bd 2647 413e
00000190: b972 40bc 7557 69bd f155 303c 690b b6bd
000001a0: aac4 2ebe 715b 553e dba2 21be 1d40 5bbe
000001b0: 9dbf a93c 9478 6b3e 289a e03d ad74 dd3c
000001c0: 56bd 3a3e 35d1 59bd 1d96 7fbe 4d22 0e3e
000001d0: cc7b 6bbc 3a2e 03be f6e0 303e c9da 743e
000001e0: 37ea 8d3d 45af 343d 0995 8b3d dcfc 69be
000001f0: ae98 56be 15e0 08be 9d7d d2bd 33a5 a33d
00000200: f737 32be 07c8 2abd ca4d 55bd c3a0 7abe
00000210: e20f 3f3d 97d2 d93d 2c3c 58bd 7fdd 993d
00000220: d50d efbd 9450 3bbd 1e60 613d 355f 36be
00000230: e4e2 063c 6c4a d9bd 333a a5bd 67db 16be
00000240: f8da 7ebc 473a 82bd 9f17 313e f4e8 4fbe
00000250: 2665 4abe f74e e0bd 075d 2e3e ac54 4fbe
00000260: 94db f03d 6b72 3abe c15e d33b a9d2 4c3e
00000270: 8e09 333c 51fa ba3d 1ee0 03be bd90 32bd
00000280: c11d 65bd 3cd6 75bd 760b 6d3e a7d9 bebd
00000290: cce8 e0bd 6dc3 5bbd 1559 7ebd 3660 c23d
000002a0: 0944 d5bd f356 33be 72da 513e beed 13bd
000002b0: 4a0e 28bc c3f9 dabd 5764 673e 8cbb 30be
000002c0: 88da 233e ce54 10be 10b0 3e3c e2dc 3cbe
000002d0: adbb 70be 8fbf 5fbd 1f11 55be e616 643e
000002e0: 3020 a3bd 45db 923d c21b 5dbe 2fb1 02be
000002f0: 3d82 ef3d 183c bbbd 4615 cdbd 66c5 4fbc
00000300: bdb8 453e 451f d33d a515 2a3e f1cd 8f3d
00000310: f096 5a3e b9b4 8e3c 8d46 a6bc 0371 9f3d
00000320: 3d87 f53c 2dc0 10be 5348 ed3d a470 cdbd
00000330: 3295 df3c f343 2cbe fca7 7d3e 50e0 c9bd
00000340: a385 bfbd 84ad 0c3e e54f 583e b92b 20be
00000350: c8e9 38bb 4ed2 01be 2e0d 6fbe 77df 193d
00000360: ac4e 53be b83f 94bd 21c7 1dbe 5c97 433e
00000370: 6c8d a9bd 84a3 3a3b 8e64 0dbe 5683 86bd
00000380: deed 8abc 1902 abbd 74cd 67be b8ae 3fbe
00000390: 5351 073e 1862 6dbd a518 933d a54e 48be
000003a0: 518d 503d 19d5 d0bc e36b 52bd 06c1 aabd
000003b0: f35c bbbc 4aa8 58be fd86 e4bd f49c 1bbe
000003c0: a346 0cbe c820 c1bd b8c1 9abd 7554 54be
000003d0: 9a2d 383e 7ae9 a73d 56d2 22bb 38aa 0bbe
000003e0: 188e 283e 07f3 32bb a7df 15bd 040c 54be
000003f0: f88d 5a3d 76cc 00bd bb90 9abd bb53 02be
0.2324139 0.1334079 0.22339448 -0.031137489 -0.09791625 0.09705912 -0.2164884 0.08717628
-0.21219908 0.18177794 0.083579995 0.044339437 0.018349132 0.03422871 -0.08891769 0.17954236
-0.044423394 -0.1014007 -0.104238264 -0.16773254 0.020416675 -0.21283779 -0.18409695 -0.20343442
-0.065746926 -0.1251811 0.17435318 0.16395235 -0.20705171 0.0234742 -0.06966313 0.0711524
0.24187884 0.13859653 -0.13641998 -0.014637261 0.1370709 -0.13778691 -0.14105622 -0.08041365
-0.17292951 -0.06126989 -0.21096827 0.07929339 -0.03696027 -0.10098224 0.036429226 -0.20241927
-0.11851338 0.11048873 -0.13987762 0.05933452 0.07044582 -0.2252724 0.06203856 0.21988747
0.015041177 -0.00021456736 0.2026801 0.087762095 0.06042137 -0.105553485 -0.11844639 -0.13221225
0.08705514 -0.21797396 0.16058518 0.20832586 0.17634434 0.18793553 0.08911076 -0.22432625
0.22393496 -0.0385066 -0.00533251 -0.013731543 0.23424016 -0.122545354 0.22360973 -0.018470429
-0.20069474 0.008242568 0.006515 -0.044105582 0.19524236 -0.1374726 -0.041408446 0.047043484
0.23336044 0.23211889 -0.08397647 0.17493834 -0.23739333 0.24932824 -0.12231941 -0.16703525
0.21125777 -0.1406928 -0.07309285 0.18874797 -0.011746102 -0.05696817 0.0107626775 -0.08888895
-0.17067209 0.20835663 -0.1578478 -0.21411176 0.020721251 0.22995216 0.10966903 0.027033174
0.18236288 -0.05317803 -0.24959607 0.13880272 -0.014372777 -0.12810603 0.17273316 0.23911585
0.069294386 0.044112463 0.068155356 -0.22850364 -0.2095668 -0.1336673 -0.10277865 0.079904936
-0.17404161 -0.041694667 -0.05207614 -0.24475388 0.046646006 0.1063587 -0.05279176 0.0751295
-0.1167256 -0.045731142 0.055023305 -0.17809756 0.008232806 -0.10609898 -0.08067741 -0.14732133
-0.015555136 -0.06358772 0.17294167 -0.20303708 -0.19765148 -0.10952561 0.17027675 -0.20247144
0.11760631 -0.1820771 0.0064505045 0.20002235 0.010927571 0.09129775 -0.12878463 -0.043595064
-0.05593658 -0.060018763 0.23148903 -0.09318858 -0.109819025 -0.05365317 -0.062096674 0.09491007
-0.10413367 -0.17513637 0.20493487 -0.0361154 -0.010257313 -0.106921695 0.2259687 -0.17259043
0.16001332 -0.1409485 0.011638656 -0.18443635 -0.23509093 -0.054626044 -0.20807312 0.2227436
-0.07965124 0.071707286 -0.2159262 -0.12762903 0.11694763 -0.09142321 -0.10013823 -0.012681341
0.19308753 0.103086986 0.16609819 0.07021702 0.2134664 0.01742016 -0.020297313 0.07785227
0.029971713 -0.14135809 0.115860604 -0.1003125 0.027292822 -0.16822796 0.24771112 -0.09857237
-0.09351661 0.13738066 0.21124227 -0.15641679 -0.0028215516 -0.12677881 -0.23344871 0.03756663
-0.2063548 -0.07238716 -0.15407993 0.19100708 -0.08278927 0.002847881 -0.1380789 -0.06568019
-0.016959127 -0.083500095 -0.22636968 -0.18718994 0.13214616 -0.057954878 0.07182435 -0.1956125
0.05091602 -0.025492238 -0.05137242 -0.083375975 -0.02287147 -0.21157947 -0.111585595 -0.15196592
-0.13698821 -0.09430081 -0.0755648 -0.20735343 0.17986146 0.08198829 -0.0024844608 -0.13639152
0.16460454 -0.00273055 -0.036590245 -0.20707709 0.05335805 -0.03144499 -0.075471364 -0.12727253

model.encoder.model.0.bias f4 [32]
00000000: 86ec 8c3c 52af 523d 5213 7abe 8199 49be
00000010: 72a2 3f3e 9a7f 0cbe b3cc 81bd 04df 9c3d
00000020: 8296 403e b1a9 60be a03f 0a3e e2e8 12be
00000030: c115 15be 095d 7ebd a7dc 67bd 1658 f4bc
00000040: 5142 e83d 6898 6dbe c1ab 87ba 0abc 0d3e
00000050: 28c3 8f3d 3f8f 793d ec36 aabc 92cd ed3d
00000060: 525c a23d fb18 26be d5ae 81bb 235f 553e
00000070: c2cb 46bd d1dd 56be 23e4 3abe 158e fabd
0.017202627 0.05143673 -0.24421433 -0.19687463 0.18714312 -0.13720551 -0.063378714 0.07659724
0.18807414 -0.21939732 0.13500834 -0.1434665 -0.1455908 -0.062100444 -0.056606915 -0.029827159
0.11340774 -0.2320267 -0.0010350869 0.13841262 0.07019645 0.060927626 -0.020778142 0.11611475
0.07927765 -0.16220467 -0.003957609 0.20837073 -0.048534162 -0.20983054 -0.1825109 -0.12234131

model.encoder.model.2.weight f4 [32, 32]
00000000: 8390 dcbd 596a 983c 4b35 fcbd b83c f23d
00000010: cb13 2ebe 7b2d 1abe 6cb2 90bd 5bf1 d9bc
00000020: 7e13 d73c 8477 1a3e 913f 2bbe 6742 d33d
00000030: 4f25 9e3d c432 64bd 1927 0dbe 0dcf 203c
00000040: c243 c2bd 548c ec3d 901e b13d 3a00 b43d
00000050: 8853 0abe 0cc1 11be f129 7bbd 13f9 00be
00000060: 6bc7 c53d d29d 203e 0289 753d f12a 2c3e
00000070: 6793 fe3d 8494 26bd d163 183e 9c56 293e
00000080: 6f35 88bd 4481 7bba 8aa1 94bc d8b1 a0bd
00000090: 4b74 1d3e 4cd0 66bd 58a3 1fbe 519e 24be
000000a0: de8d 46bd 29be b3bd 9944 2cbd ad61 b3bd
000000b0: a4b6 07be e57b f1bb 9b81 2dbd 1a93 2fbd
000000c0: e55c e43d 68e6 383d 22a1 063c b459 223e
000000d0: 4991 df3a bfe2 113e 545e 173e be04 8b3d
000000e0: 76ce f2bd d3f5 e5bc d2c2 0b3e efa8 f93c
000000f0: 80af 383e 9810 b23d 4285 8dbd 8ae5 153d
00000100: 145a d03d f3b6 1bbe eaed f1bd 0a17 fbbd
00000110: c8ef d83c 8b4e fb3c cb47 193e dd3e 34be
00000120: 0118 d03d af65 f33d 0f2f 39be 2eae f6bd
00000130: c2eb 5f3d 32ad 21be cc30 153e abd0 183e
00000140: 146c 173e cf01 dcbd 0218 be3d d556 23be
00000150: 7790 8b3d 82b4 073e f55b e13d 8625 86bd
00000160: 8421 48bc 8669 fdbd aff0 fe3d 1a4c 773d
00000170: c2f6 22bc 56ee a1bd d07d cfbc b28f b2bd
00000180: 1052 98bc d7f9 fe3d 6433 2bbe a7a4 f0bd
00000190: aba5 333e cd0c 4ebd c39a f63c e7b6 283e
000001a0: 9a4b c8b9 34e7 c1bd 5f83 66bd f692 97bd
000001b0: cc2f 033e fee2 dd3d 7d37 073e cec4 bc3d
000001c0: fd98 20bd cad8 9dbd b6e7 66bd d655 18be
000001d0: f1e3 ffbd 4a62 18be 8d63 953c bf13 eb3d
000001e0: 4d09 9ebc 77bd e93c d8dd 60bc 1163 88bc
000001f0: e4bd b6bd 5035 99bd 29bc 05be aaaa f63d
00000200: 6404 f5bd a9c4 9b3d da75 5b3d 96a1 a4bd
00000210: 4374 dabd c530 ac3d 4feb 66bd a060 ad3c
00000220: 0a2e 223e bdb3 263e 14cc 19be 468c f2bd
00000230: 4e2d 723d ff34 00bd 7e99 103e 8b51 afbd
00000240: b377 81bd 66a7 f53d aa1c fe3c a770 9c3c
00000250: 1e96 e43c 2fe1 58bc 27f5 f9bd 4a0e f63d
00000260: 1347 e63d bf8d 753d 9c23 013d acab fd3d
00000270: 0c12 133e f9cb a63d 3ada 80bd a727 16be
00000280: 6b88 9a3d cfd9 f23d 9f60 4dbd 40b6 8cbd
00000290: 2cf1 4dbd e943 23be 107f d0bd d8a7 023d
000002a0: ed8c 543c 8e41 a439 deb4 953d 68bd e9bd
000002b0: 24c1 cbbd 3baa 193e 8b55 f4bd b05c 0bbc
000002c0: f59e 09be b37c bb3c cce1 c0bd e47a 25be
000002d0: f6c5 063e 6551 f03c aac2 0c3c c023 2abd
000002e0: 8496 98bd 2c3a 1a3e 8737 273d 16c2 1ebd
000002f0: 1c65 a5bd e2a0 113e ccf2 26bd 54a9 e8bd
00000300: 90b6 05bd 06b4 f23c 3480 13be d452 2b3c
00000310: d149 8d3c 4573 26be 375d a13a 118a 023c
00000320: c703 babd fe45 063e 0ac2 15bd 8444 1f3e
00000330: e23a 81bd 302a c4bd 8f59 79bd 6ab8 7cbd
00000340: f4af ecbc 3f20 26be 6ab1 673d 8ad2 5b3d
00000350: 2bd5 003e d1db 0bbd 7c57 28bc 4641 e63c
00000360: e1b7 d8bd 5545 21be bb69 713b 4a58 86bd
00000370: 7730 013e 9fee 08bc 946e e43d 69aa 6fbd
00000380: 09f9 5ebd 7471 013e 1c48 10bd 7f0f 1e3e
00000390: 2c84 163e 9530 2cbc 4051 303e 5827 cc3d
000003a0: ee93 063e 3255 263e 2842 31be 3c25 fabc
000003b0: 6e04 1bbe 8909 9dbd 4508 49bd df46 ca3d
000003c0: 7b4e 17be f33c 213d 2b8d 0c3e 5cf6 c0bc
000003d0: 7adb cf3d 0800 883c 9085 31be 117f 0ebe
000003e0: 9402 8dbd 6258 f1bc f81f 38be 8d95 1abd
000003f0: 2beb 893d 4a2d c8bd d522 f03d 79ba cfbd
-0.10769751 0.018605398 -0.12314852 0.118279874 -0.16999738 -0.15056412 -0.07065281 -0.026604345
0.026254412 0.15084654 -0.16723467 0.103153996 0.0772196 -0.055712476 -0.13784446 0.00981499
-0.0948558 0.11550203 0.086484075 0.08789106 -0.13508427 -0.14233798 -0.061319295 -0.12595014
0.096571766 0.15685204 0.059945114 0.16813256 0.124304585 -0.04066898 0.14881827 0.16536945
-0.06650817 -0.0009594152 -0.018143434 -0.07846421 0.15376393 -0.05635099 -0.15589654 -0.16076018
-0.04847514 -0.087765045 -0.042057607 -0.087588646 -0.13253266 -0.0073695057 -0.04235993 -0.042864896
0.11150531 0.045141608 0.008217128 0.15854532 0.0017056848 0.14246653 0.14782077 0.06788014
-0.118557855 -0.02807132 0.13648537 0.030476062 0.18035698 0.08694571 -0.069101825 0.03659586
0.10173431 -0.15206508 -0.11812957 -0.12260254 0.026481524 0.0306771 0.14968793 -0.17602105
0.101608284 0.11884629 -0.18084358 -0.12044941 0.054668196 -0.15788725 0.14569396 0.1492335
0.14787322 -0.107425325 0.09281923 -0.15951093 0.06814664 0.13252452 0.110038675 -0.06550126
-0.012215022 -0.123736426 0.124482505 0.06037531 -0.009946527 -0.07906787 -0.025328547 -0.08718814
-0.018593818 0.12449997 -0.16718823 -0.11750155 0.17543666 -0.050305177 0.030103093 0.16476022
-0.000382033 -0.094679266 -0.05627763 -0.074010774 0.12811202 0.10834311 0.13204761 0.09217225
-0.0392084 -0.07707365 -0.05637332 -0.14876494 -0.12494648 -0.14881244 0.018235946 0.11478376
-0.019291544 0.028532727 -0.013724767 -0.016648801 -0.089229375 -0.07480872 -0.13060059 0.1204427
-0.11963728 0.07605869 0.05357919 -0.080386326 -0.106667064 0.084077395 -0.05637675 0.021164238
0.15837875 0.16279502 -0.15019256 -0.11843161 0.059125237 -0.03130054 0.14121053 -0.08560475
-0.06321659 0.11994819 0.031019527 0.019096686 0.027903613 -0.013237282 -0.12204962 0.12014444
0.11244025 0.059949633 0.0315281 0.123862594 0.14362353 0.081443734 -0.062916234 -0.14663564
0.07545551 0.1185795 -0.050140973 -0.06870699 -0.050278828 -0.15943874 -0.10180485 0.03189835
0.012973052 0.0003132936 0.07309888 -0.114130795 -0.09948948 0.15006344 -0.119303785 -0.008505985
-0.13439544 0.02288661 -0.09418067 -0.1616016 0.13161454 0.029335687 0.008591333 -0.041538
-0.074505836 0.15061253 0.04082444 -0.038759314 -0.08075926 0.14221528 -0.040758893 -0.11360422
-0.03264481 0.029626857 -0.14404374 0.0104567595 0.017247112 -0.1625491 0.0012311105 0.007967488
-0.09082752 0.13112637 -0.036562003 0.1555348 -0.06310059 -0.09578359 -0.060876425 -0.06169931
-0.028892495 -0.16223238 0.05656568 0.053667583 0.12581317 -0.03414518 -0.010274764 0.028107297
-0.10581947 -0.15749104 0.0036836702 -0.065598086 0.12616144 -0.008357673 0.111539036 -0.058512125
-0.054436717 0.12640935 -0.03522502 0.15435599 0.14698857 -0.01050963 0.17218494 0.09968442
0.13142368 0.16243437 -0.17310393 -0.030535333 -0.15138409 -0.07667834 -0.049080152 0.09876799
-0.14776032 0.039364766 0.13725726 -0.023554973 0.10149284 0.016601577 -0.17336106 -0.1391566
-0.06885257 -0.02946109 -0.17980945 -0.03774028 0.06734308 -0.09774263 0.11725394 -0.10142989

model.encoder.model.2.bias f4 [32]
00000000: d3ca 0e3d 8df0 8fbd 9fbb a83c aa02 2fbe
00000010: 5820 253e f40a e8bd 335e 70bd 0373 0e3e
00000020: 5d98 bd3c 7cd0 5bbc b81a 963d 6e22 883d
00000030: dae4 29be 7e52 123d 2fb0 2dbe a64c e3bd
00000040: f034 193e 0521 63bd 57c9 2c3e 31fb 1dbd
00000050: 0aee babd cea6 1dbe 5e6e 103e 970c 03be
00000060: 7280 0ebd d440 2b3e 586a 08be 135e e6bd
00000070: d1c0 f23c 58a5 ed3b 5679 de3d a81f da3d
0.034861397 -0.07028303 0.020597277 -0.1709086 0.1612562 -0.11330214 -0.058683585 0.13911061
0.023143942 -0.013416406 0.07329315 0.06647192 -0.16591206 0.035723202 -0.1696174 -0.11098604
0.149616 -0.05545141 0.1687368 -0.038569633 -0.091274336 -0.15395662 0.14104602 -0.12797771
-0.034790464 0.16723949 -0.13321817 -0.11248412 0.029632958 0.0072523765 0.10862987 0.10650569

model.encoder.model.4.weight f4 [32, 32]
00000000: a2e7 61bd 4fa9 1fbd a35e 2cbe 92dd ba3d
00000010: 33cf f03c a38e 0dbe 3d18 b7bd 4298 bd3d
00000020: 2f0d c33d b038 193e 5dc5 e23b d5ee 7ebc
00000030: 260d 8a3c 60a7 f23d aba0 183e f27a b8bd
00000040: f46f 10be 5062 423c a90c 7a3d fce8 9e3d
00000050: 565b 72bd 66d7 113e cce8 ed3d 20f4 333c
00000060: d3fc 1ebe faac 503d 8d02 25be a4d8 2c3e
00000070: 4e74 aabc 1603 433d aa59 9b3d 8500 fd3d
00000080: 4467 9c3d 92b8 d2bd c81d 1abe 2085 ecbd
00000090: cb12 47bd 8955 a2bc 8c48 2d3d dfbf 2c3e
000000a0: 89ee e93d 8a4b 153e d9bc 0f3e c1bb f53c
000000b0: 158a 29be e93c b5bc b7c8 f7bd ad0d e1bd
000000c0: f102 48bd e689 d83d db0f edbd 94df 29be
000000d0: f406 6f3d 42f1 d63b f287 013e b6b6 99bd
000000e0: d076 b53d 1f91 323e 627d 653b bb7e c9bd
000000f0: e17f f5bc df0d a13d f280 87bd a8d4 b0bd
00000100: 9e86 1b3e 05bc c33d f1ea 523d 067c 90bd
00000110: 24f6 abbb c739 f63c 3bac 06be f919 32be
00000120: 15b1 1c3d 803f ddbd ec7a 20bd 4d54 963d
00000130: dc84 093e 2a9c f0bd 0193 3a3c e2f6 6bbd
00000140: 862d e43d a81a 80bd fe3f c4bd 7558 163e
00000150: 18f3 5c3d e89c 2dbe c50d 0ebd ff52 ddbc
00000160: aa8d b93d 6653 e43d 5074 0b3e bc77 d6bd
00000170: 7a5c 293e 3671 9abd 09f2 01be 36f4 d3bc
00000180: 57e0 46bd 9775 cabd 27d3 d73d eacb 833c
00000190: 420a 273e dfa7 683d 28ad 15be 621e c63d
000001a0: 60d4 e9bd 8b43 7e3d e9cf 123e 8138 8fbb
000001b0: 22f1 1839 b74d 26bc 577b d9bd f897 a23d
000001c0: 3b6b 313e fd28 f939 c5e4 143d 881b a63d
000001d0: 8cc0 ef3c f8f1 3e3d a790 963d 1edc 803b
000001e0: 8c11 cabd 3bb9 d83d 11f6 75bc d28a 533c
000001f0: 8404 74bc 09fc 813d ef07 083e 89f7 19be
00000200: 8d90 8ebd 2245 1cbe 2f33 f73c 6cc1 963c
00000210: b934 ff3d 8627 22bc a701 35bd 1f30 e5bd
00000220: 6f7b 5cbd 8251 0fbe 32e4 c03c c46c 1f3e
00000230: 83c7 08bd 2efa 553d 9632 ea3d 0f4a fcbc
00000240: d9e0 abbd 9eaf 1fbd bc44 ba3d 1eae c73c
00000250: 92dd 15be ba05 2bbe 8731 07be 5ba6 f9bc
00000260: 71ab cf3b 0ab0 b93d 3fd6 313c bf51 cbbc
00000270: c72c 2d3d 40e3 fc3c 574d 053e 7c93 b33d
00000280: 84a5 08be 2f3d f53d 3c39 cebb d7dc 603d
00000290: adb7 f2bd a406 d63d 7306 9a3d 4aaf bdbd
000002a0: 4d11 1bbe 37bc 323e 866f 9b3c 40a9 a03d
000002b0: 1fdb df3d 0464 2c3e 8cf2 c2bd 5387 2c3c
000002c0: 4e11 8fbd 8881 4bba 66d9 2ebe cb13 fe3d
000002d0: 7d82 803d a330 e63d 2e32 03be 000d af3d
000002e0: 91f1 bbbd 4f33 253e a615 39bd d82d 33bd
000002f0: f293 2c3e 49cc dbbd e03d 21be e4fc 2f3c
00000300: 627c cc3d 966c 0b3e c097 073e c31d ac3d
00000310: 3e0b 083d 37d2 86bc eaf4 c3bc 49f4 89bd
00000320: ba67 44bd ca84 153e c46a 8c3d 2df7 4d3d
00000330: 68e5 febc fe9d c93c 3cea 07be 026d 1cbe
00000340: b1df 76bd 3a02 c63d 803f 1bbe 4195 f0bd
00000350: 1c1e 45bd b590 073e 275c b2bd e7c3 4c3d
00000360: cb23 a13c 5ca4 233e 3752 0fbe 7dd3 ae3c
00000370: bd8e 16bc 2b4f 903d d9c8 203d a66e 1ebe
00000380: c9f3 2cbc c727 193d 428c 183e b509 0e3e
00000390: 1be0 803d 6f89 0c3e e40f 433c 0503 ab3d
000003a0: 5765 db3c cc66 d6bd f240 81bc 468f 233e
000003b0: 4a21 1fbe de8b f1bd 29f7 cfbd 1ce9 823d
000003c0: 774c 37be 2ff8 f8bd 021d fa3d feab 8d3d
000003d0: b658 09be 33a9 0b3e 5b98 143e e435 34be
000003e0: 5a2c c13d 0ca7 a0bd b82d 28be e398 8fb9
000003f0: e18a 2abe 0a87 303d 2a52 243e 969c 46bd
-0.055152543 -0.038979825 -0.16832976 0.091242924 0.029395675 -0.13823943 -0.0894017 0.092575565
0.09523999 0.14963031 0.0069205 -0.015559872 0.016851973 0.118483305 0.1490504 -0.09007825
-0.14105207 0.01186426 0.06104723 0.07759282 -0.059169136 0.14242324 0.11616668 0.010983497
-0.15526132 0.050946213 -0.16114254 0.16879517 -0.020807412 0.047610365 0.075854614 0.12353615
0.07636884 -0.1028911 -0.15050423 -0.11548829 -0.048601907 -0.019816177 0.042305514 0.16870068
0.1142245 0.14579597 0.14036883 0.029996755 -0.1655658 -0.02212377 -0.1209883 -0.109889366
-0.04883093 0.10573177 -0.1157529 -0.16589195 0.05835624 0.006559522 0.12649515 -0.075055525
0.08860552 0.17438172 0.003501736 -0.09838625 -0.029968204 0.07863974 -0.06616391 -0.08634311
0.15188071 0.09557346 0.05149359 -0.070549056 -0.005247848 0.030056847 -0.13151638 -0.1739272
0.038254816 -0.10803127 -0.039179727 0.07340298 0.13429588 -0.11748536 0.0113875875 -0.057608493
0.111414954 -0.06255084 -0.09582518 0.14682181 0.05394277 -0.16954386 -0.0346811 -0.027017115
0.090602234 0.111487195 0.13618588 -0.10472056 0.16539183 -0.075411245 -0.12689985 -0.025873285
-0.04855379 -0.0988571 0.10538321 0.016088445 0.16312507 0.05680072 -0.14616835 0.09673764
-0.114174604 0.062076133 0.14337124 -0.0043707495 0.00014585679 -0.010150365 -0.10619228 0.07939142
0.17326061 0.0004752352 0.036350984 0.0811072 0.029266618 0.046617478 0.07351809 0.00393249
-0.09866628 0.10582205 -0.01501228 0.012911515 -0.014893655 0.063469 0.13284276 -0.15035833
-0.069611646 -0.15260747 0.030175773 0.018402778 0.12461228 -0.009897118 -0.04419103 -0.11190819
-0.053828653 -0.13995937 0.023546312 0.15568835 -0.033393394 0.052240543 0.1143543 -0.030797033
-0.08392496 -0.03898584 0.09095141 0.024375018 -0.14635304 -0.16701403 -0.13202487 -0.030474832
0.006337576 0.0906678 0.010854303 -0.024819253 0.04227903 0.03087008 0.13017784 0.08768365
-0.13344389 0.119745605 -0.006293444 0.05489811 -0.118514396 0.10450485 0.07520761 -0.09261949
-0.15143318 0.17454611 0.018974077 0.07844782 0.10930466 0.16835028 -0.095189184 0.010530311
-0.069857225 -0.0007763137 -0.17075118 0.12406119 0.06274889 0.112397455 -0.12812111 0.085474014
-0.091769345 0.16132854 -0.04518666 -0.043744892 0.16853312 -0.10732324 -0.1574626 0.010741446
0.09984662 0.13615641 0.13241482 0.08404114 0.033213846 -0.01645766 -0.023920495 -0.06736047
-0.047950484 0.14601436 0.068563014 0.050284553 -0.031115249 0.02461147 -0.13272947 -0.15275958
-0.060271922 0.096683934 -0.15160942 -0.11747218 -0.048124418 0.13238795 -0.08708983 0.049991515
0.019670388 0.15980667 -0.13996206 0.02134108 -0.009189305 0.0704635 0.039254043 -0.15471897
-0.01055617 0.03739145 0.14897254 0.1387089 0.06292745 0.13724302 0.011905644 0.08350185
0.026781721 -0.10468826 -0.015778039 0.15972623 -0.15540043 -0.11794256 -0.10154564 0.06392118
-0.17900263 -0.12156712 0.12212564 0.069175705 -0.13412747 0.13638763 0.14511244 -0.17598683
0.094322875 -0.07844362 -0.1642369 -0.00027388995 -0.1665454 0.043097533 0.16046968 -0.048489176

model.encoder.model.4.bias f4 [32]
00000000: 7e21 163e b9ae a1bd 16d5 06be 8f0c 2c3e
00000010: cc9c 24be a88a b33d 9495 a83c 34a7 7cbd
00000020: 6a17 a9bd 48b6 b2bd baf0 10be d589 e1bd
00000030: 859f 94bd eff7 283d 1ba2 7c3d ea5d 113e
00000040: 1653 33bb a7ce 4a3d 384a ecbd aa5d 023e
00000050: 25b0 fdbb 8d17 c1bd b402 cabd f562 0bbe
00000060: 3636 563d e628 dc3c 7e95 e73d c4d7 713d
00000070: deee cfbd 557b 94bd 0d14 2ebc 426c 9abd
0.14661214 -0.07894654 -0.13167223 0.16801666 -0.16075438 0.08766681 0.020579137 -0.061682895
-0.08256419 -0.08726174 -0.1415433 -0.110126175 -0.072569884 0.041252073 0.061678033 0.14195982
-0.0027362755 0.049513485 -0.115375936 0.12731043 -0.0077419453 -0.0942832 -0.09863797 -0.13611968
0.052297793 0.02687497 0.1130781 0.05904366 -0.10152982 -0.07250086 -0.010624898 -0.0754018

model.encoder.model.5.weight f4 [32]
00000000: 8670 7c3f fe38 7c3f 4964 7e3f ff48 7c3f
00000010: 62e3 7b3f 8d08 7e3f 1375 7d3f 11ac 7f3f
00000020: 5103 7c3f 664d 7e3f 6f3a 7f3f de7c 803f
00000030: 19de 7f3f aac8 7c3f a066 7d3f 2533 7f3f
00000040: 18d5 7c3f e122 7c3f 89dc 7e3f be18 7c3f
00000050: 75c8 7f3f a3b3 7d3f b502 7f3f 2cc7 7c3f
00000060: f8c1 7c3f 0abe 7d3f ca26 7e3f 3e54 7f3f
00000070: aa8a 7f3f 1d40 7d3f 1a45 7e3f 6f49 7f3f
0.986092 0.98524463 0.99371773 0.98548883 0.98393834 0.992318 0.99006766 0.9987193
0.9844256 0.9933685 0.9969854 1.0038106 0.9994827 0.9874369 0.9898472 0.99687415
0.98762655 0.9849072 0.9955526 0.98475254 0.9991525 0.9910223 0.99613506 0.9874141
0.9873347 0.991181 0.9927794 0.9973792 0.9982096 0.98925954 0.9932419 0.99721426

model.encoder.model.5.bias f4 [32]
00000000: a5dc 4bbc 75a6 533c 5e98 d3bb 17d9 76bc
00000010: 54a4 3d3c 4575 a23b fb1d 4f3c ee94 3ebb
00000020: b79d 84bc 7053 633b e3fc 443b 599e 99bb
00000030: 823d 56ba 5806 7dbc 2cd0 9dbb 7919 7cbb
00000040: 3d96 2cbc 3ed9 5fbc 2d2b 203c d970 9fbc
00000050: 431a a5bb b05d 433b ab41 6e3c 672b 373c
00000060: a178 4b3c e349 933b 324b 9bbb 885e 23bb
00000070: 6812 11ba 4f13 1f3c 5433 523a 1878 df3a
-0.0124427425 0.012918104 -0.0064573726 -0.015066407 0.011574823 0.0049578273 0.012641425 -0.0029080468
-0.016188486 0.0034687184 0.0030057959 -0.004688066 -0.00081726175 -0.015443407 -0.004816076 -0.0038467331
-0.0105338665 -0.013662634 0.009775919 -0.01946299 -0.005038531 0.002981048 0.014542024 0.0111797815
0.012418897 0.004494892 -0.0047391886 -0.0024928171 -0.0005534054 0.009709193 0.0008018513 0.001704934

model.gnn.0.att f4 [1, 1, 32]
00000000: cc56 8ebe 0e95 673e 50f5 b3be 65fb d33e
00000010: e658 7a3e f9d2 d13d e1d2 a4be d1d2 d43e
00000020: 4c6c fc3a c3f1 5ebe 2f20 f1bb e8de 8bbd
00000030: 9aa6 ad3e 7c56 f8bd 2331 ee3d c3b1 a63e
00000040: ab8a a33e 98cb d63e c397 923e 0f41 7fbe
00000050: 21b2 153e 2207 333e e80a 403d a683 e23d
00000060: 64a4 89be 9020 0d3e cc5f d6bd adce d53e
00000070: 815f ae3e 7513 1fbe f555 06be 122b bd3e
-0.27800596 0.22615454 -0.35148096 0.41402736 0.24447975 0.10245318 -0.32192138 0.4156709
0.0019258349 -0.21771912 -0.007358573 -0.06829625 0.3391617 -0.121258706 0.11630466 0.32557496
0.31941733 0.41952205 0.2863141 -0.24927162 0.14618732 0.1748319 0.0468854 0.11060266
-0.26883233 0.13781953 -0.104674906 0.41759244 0.3405724 -0.15534766 -0.13118728 0.36946923

model.gnn.0.bias f4 [32]
00000000: a10a 0fbb 4337 8f3b 7b1f b0bb 374a 543a
00000010: 3e4e 943b 5b8a 8c3c 315e 97bb e419 83bb
00000020: 3842 083b 3658 193c 93eb 0a3c abbc 3bbc
00000030: 441d bc3b 7e6a d1ba bc00 8e3a 8a90 37bc
00000040: bd90 8abb 05a9 22bb 70ca a4bb 5d17 0dbc
00000050: d429 78bc ab52 84bc 214e 0a3c d9b9 d1bb
00000060: 6224 edbb da2c 633b e65f 3c3c 209a c83b
00000070: b1d4 3c3a 9a83 243c 35a7 0b3b 5950 c73b
-0.0021826404 0.0043706014 -0.0053748465 0.0008098217 0.0045259288 0.017155817 -0.004619383 -0.004000889
0.0020791423 0.00935941 0.008479017 -0.011458556 0.0057407934 -0.0015977172 0.0010833959 -0.011203894
-0.00422868 -0.0024819982 -0.0050290152 -0.008611527 -0.015146691 -0.0161527 0.008441479 -0.0064003286
-0.007237003 0.0034664185 0.011497473 0.0061218888 0.00072033243 0.010041142 0.002130938 0.0060825762

model.gnn.0.lin_l.weight f4 [32, 32]
00000000: 160a ee3d 68a4 8c3e 3c54 283e d491 753e
00000010: b0dd 23bc 5de8 47be e058 2c3d 12e1 0b3d
00000020: 9e88 d4bd e6ad d7bd a902 fabc 3ffe 9abe
00000030: e148 913d 6f76 0bbe 767b 6cbd f807 30be
00000040: c088 8fbd faea b83c dc4a 843d da35 ad3d
00000050: cb41 303d 5c18 9f3d d0ec 92be f5dc b23c
00000060: d0f3 ce3d ff92 ccbb 2dc7 783d 48f1 8d3e
00000070: 73bd 723e a12e 143c e6ff 2abd df2d 5e3e
00000080: 7e07 d53d b556 e03d 3be2 263e e5c2 0a3e
00000090: 8f3c 2f3e 21e0 06be 2de4 383e a121 453e
000000a0: 7e9c 34bd 2fd9 033d 092c bdbd f38a 7ebe
000000b0: 32af 8ebe f8a1 15be 8c3e 48be 1cb3 f3bc
000000c0: 2df4 933e 8810 2b3e eed5 92be d782 95be
000000d0: 0ec8 753d d75e 843e ea88 bb3d 2c33 72bd
000000e0: 06d0 243e d58a 85be b85d 49bd 8383 d53d
000000f0: d43c 0b3e 4c37 653a b9b3 bb3d 6a39 393e
00000100: 2808 8d3e 454d 35be e1e9 a73d edb8 5b3a
00000110: 2454 8b3e 7c1b 583e 1a56 d0bd f4d1 97be
00000120: 95f9 26be 7b99 82be 7fff 703e bdfd 50be
00000130: 54b4 e13d 25b1 413e bbb2 35be 9417 02be
00000140: 7cd6 673e aa5d 543e b40e 693d 7415 133e
00000150: 82a8 b43d 5ab4 2cbe 4666 61bd 07de 66be
00000160: 1cb0 82bc b2ac 293c c930 97be fd89 543e
00000170: 5e52 9a3e 3bab 56bc fa5e 2f3e 454c 8d3d
00000180: 310e 7abe 0a4e 42be 179f 72bd 3ec0 7fbd
00000190: 2b73 863e 39de 55be fe10 57be a547 ae3d
000001a0: c6a8 0a3e 3a24 ec3d d3f1 503e 0a06 4b3e
000001b0: cfcf 83be 4e70 823e 5960 693e 5838 96bc
000001c0: 569c 3ebe fc53 733e a635 f23d 8301 8bbe
000001d0: 6ccd 19be 2a48 00be e2e8 c6bd cba9 0bbe
000001e0: bc79 763c abef 77be 0a5a 183d f969 e93a
000001f0: a3b2 0a3e 3b25 8e3e 8e3c 493e 42e4 0d3e
00000200: 72c8 aebd 55be 2e3d e478 513e 3ca3 953e
00000210: 6276 88be 43c3 96be 0b5b 81be 694a 423e
00000220: 39b1 823e 6df3 923e b59e 983e 3cd2 32be
00000230: a29f 4d3d c4c9 fabd 05a6 41be d5f9 95be
00000240: cd27 443e 8f52 7dbe fd61 ddbd a309 533e
00000250: 2899 d3bc 4c02 1dbe c0a7 923e 49fd 23be
00000260: fd62 8a3e 559c e43c 9236 4dbc 65fd 57be
00000270: 7a27 e0bd 1fd3 1e3e 9436 c4bd 8f67 293d
00000280: c813 63bc 8e16 823e 01a4 c5bd 88f4 843e
00000290: 97e1 323e f44b 72be 7ea8 8fbe 444b c7bb
000002a0: 9efe 69be 5417 7bbe 81af 75bd 65ae 90be
000002b0: 86a6 06be 3a8d d4bd ddcf 38bd 35d6 d9bd
000002c0: 00c8 fbbd a61a 8abd 1aab f43c 63ba 8ebd
000002d0: 50c7 413e fd25 873e c376 4e3e d1fe 0b3e
000002e0: 512d 143e 7542 7bbe ab28 97bd b434 16be
000002f0: ad3b 18bd 3cce e2bd 8df2 623e 53e7 893e
00000300: 324e 78bc e9b9 493e 126a 913d 0fc0 5abd
00000310: 8525 853e b2e9 55be 6f3a 4b3d acbe 603d
00000320: e44c 2bbe 50d8 58be 206d 9d3d c505 3fbe
00000330: 952f 40bd 6925 09be a1ef 85bd 4aac a63d
00000340: 8810 18be 469a b23d f972 683e 3ccf bd3d
00000350: 6726 99be cb44 92bd 1558 10bc 3130 b6bd
00000360: 25da 9e3d adf8 943e 1f39 803e 9070 cebd
00000370: 2542 3cbe 29b8 913e c1fd 853e 2abb 5f3e
00000380: 5aff 4dbc e998 95be 96d5 973e f4e9 b3bd
00000390: c1ee 513e 358d 30be 438a 34be 9bb2 d3bd
000003a0: 0624 723e b17d 92bd aa14 15be 0fe0 7c3e
000003b0: 12ab 33be 94a2 18be 1201 793d 3638 46be
000003c0: e617 433e e73b 3a3e dda6 813e 9fcd 123e
000003d0: 634b 113e d41a f2bd 20f3 35bd ac66 85bd
000003e0: 9949 073d 9381 813e c546 17bd 00e0 73be
000003f0: 3b78 d33d 7c15 723e 6420 4fbc e914 99be
0.116230175 0.27469182 0.16438383 0.2398141 -0.010001585 -0.19522233 0.042076945 0.03415019
-0.1037762 -0.10531215 -0.030518847 -0.302721 0.07093979 -0.13619398 -0.05773493 -0.1719054
-0.07008505 0.022572983 0.06459591 0.08457537 0.043031495 0.07768318 -0.286963 0.021833876
0.10105097 -0.0062431092 0.060736824 0.27723145 0.23705082 0.00904432 -0.04174795 0.21697186
0.1040182 0.10954038 0.16297238 0.13550909 0.17112945 -0.13171436 0.18055792 0.1925111
-0.044094555 0.032189544 -0.09236915 -0.24857692 -0.27868038 -0.14612567 -0.1955511 -0.029748492
0.2889723 0.16705525 -0.2867884 -0.29201385 0.06000524 0.25853607 0.09156974 -0.059130833
0.1609498 -0.26082483 -0.049161643 0.104254745 0.13597423 0.00087438966 0.09165139 0.18088308
0.27545285 -0.17705257 0.08198906 0.0008381743 0.27212632 0.21104234 -0.101726726 -0.2965237
-0.16306145 -0.2550772 0.23534964 -0.20409293 0.11020723 0.18915232 -0.17743962 -0.12704307
0.22640413 0.20738855 0.056898788 0.14363652 0.08821203 -0.16865674 -0.055029176 -0.22545634
-0.015953116 0.010356115 -0.29529408 0.20755763 0.30140966 -0.013102348 0.17126074 0.06899313
-0.24419476 -0.18975082 -0.05923375 -0.062439196 0.2625974 -0.20885552 -0.21002576 0.08509759
0.13540944 0.11530347 0.20404749 0.19826522 -0.25744483 0.25476307 0.2279066 -0.018337414
-0.18614325 0.23762506 0.11826639 -0.2714959 -0.15019768 -0.12527528 -0.097123876 -0.1363899
0.015043672 -0.2421252 0.037195243 0.0017808072 0.13544707 0.2776278 0.19652006 0.13856605
-0.08534326 0.042661984 0.20456272 0.292261 -0.2665282 -0.29445848 -0.25264773 0.18973698
0.25525835 0.28701344 0.29808584 -0.1746301 0.050201066 -0.12245515 -0.18910988 -0.2929217
0.19155808 -0.24738525 -0.108097054 0.20609145 -0.025829867 -0.15332907 0.28643608 -0.1601459
0.27028647 0.027906576 -0.012525218 -0.21092756 -0.109450296 0.15510224 -0.095807225 0.041358527
-0.013859697 0.25407833 -0.09650422 0.25967813 0.17468868 -0.23661786 -0.28058237 -0.0060819704
-0.22851035 -0.24520618 -0.059981827 -0.28258052 -0.13149461 -0.10378499 -0.04512011 -0.1063656
-0.12294006 -0.06743364 0.029866744 -0.06969144 0.18923688 0.2639617 0.20162492 0.13671423
0.14470412 -0.2453707 -0.07380804 -0.14668542 -0.037166286 -0.11074492 0.22162838 0.269343
-0.015155362 0.19699825 0.071003094 -0.053405818 0.26005188 -0.20889929 0.049616273 0.05486934
-0.1672855 -0.21176267 0.076868296 -0.18654545 -0.046920378 -0.13393177 -0.06539846 0.0813833
-0.14850056 0.087208316 0.22700109 0.092680424 -0.2991211 -0.071420275 -0.008810063 -0.088959105
0.077564515 0.29095975 0.2504358 -0.10080063 -0.18384607 0.28460816 0.2617016 0.21848741
-0.012573088 -0.29218224 0.2965514 -0.087848574 0.20501234 -0.17241366 -0.17630868 -0.10336801
0.23646554 -0.0715288 -0.14558664 0.24694847 -0.17545727 -0.14905769 0.060792036 -0.1935738
0.19052085 0.18186913 0.2532262 0.1433625 0.14188914 -0.11821523 -0.044421315 -0.06513724
0.033029173 0.2529417 -0.036932725 -0.23815918 0.103256665 0.23641008 -0.012642 -0.29898766

model.gnn.0.lin_l.bias f4 [32]
00000000: aef4 1cbd 0a90 c0bc 9f69 d63d 9aac 1e3e
00000010: 990d 2d3e f4c2 cf3b 73c1 0ebc a2a4 24be
00000020: 0b16 de3d 69e9 123e 427a 86bb e16b a23d
00000030: ff43 0cbd db40 10be 66b4 20bd ac3d 23be
00000040: 964b 593d 5a8a 0e3d 122f 923b 549c b63d
00000050: 2f69 cf3d 9f70 283c 062c 84bc f4f0 9e3d
00000060: 656e 38be ad45 3e3c 4cda 1fbd 3a30 3f3d
00000070: e813 903d f146 e4bd b380 1dbe d8dc e63d
-0.038319282 -0.023506183 0.104693644 0.1549553 0.16899718 0.006340379 -0.008713114 -0.16078427
0.10844048 0.14346851 -0.0041039297 0.079307325 -0.034244534 -0.1408724 -0.03923454 -0.15941495
0.0530506 0.03479991 0.0044611776 0.08916536 0.10127484 0.010280757 -0.016134273 0.07760802
-0.18010862 0.011613292 -0.039026543 0.04667685 0.07035047 -0.111463435 -0.15381126 0.11272591

model.gnn.0.lin_r.weight f4 [32, 32]
00000000: efd9 40be a28c 833e 61a8 39be 74b7 e8bd
00000010: 1a6f b3bd d27c 52be eb84 9bbe 1220 8bbe
00000020: 6b40 493e b330 81be 32a0 13be d373 ebbc
00000030: 1d86 7c3e 6999 9bbe f96d 1cbe f961 71be
00000040: abd8 8bbe 0c08 4cbe 935f 883e 0de8 363e
00000050: 86cf 683e 4620 523e f0cf 463e 021e 93be
00000060: 3554 e6bd 586a 753e 859a 233e 9323 47be
00000070: 9d46 643c 4894 29be b9cd 0f3d 745b 913d
00000080: 1cfb 763e 6030 efbc 97fd e4bd da4b 383e
00000090: 2168 563e c109 0fbe 8391 873e 3d4e f73d
000000a0: faaf 7b3e bb33 52be f47b 9bbe 090e 53be
000000b0: 8c60 a13d d7a6 8cbe 2a6c a33d ae5e f23d
000000c0: 55c9 013e 009a 943e adec 56bc fe1e b6bb
000000d0: 58a9 823e 3098 9b3e 5877 453d b4f7 483e
000000e0: ff95 92bd f4d5 483e 4230 8a3e 602e 8e3e
000000f0: f87e 9cbe 7bff 99bd 7211 8abe b786 45be
00000100: afa7 283e cc8e c83c d6bc 8dbe 2962 f4bd
00000110: f458 18be 3dc7 613e c589 6bbe be52 8d3e
00000120: 273e 00be 39c3 823e 215a 443e 5788 83bd
00000130: fa35 8a3e 1f66 6c3d 7934 28be d75f c3bd
00000140: c952 8b3c c15a 03be 58dc 6c3d 9bcf 1dbe
00000150: 9643 61bd a8e2 883d b88e 733e 73b8 5bbe
00000160: abd7 1bbe fa75 343b 530a 97be 16ac 9c3e
00000170: 9e0b 8ebe 2ade acbc a000 a53d a983 29be
00000180: 05a6 263e e3b9 cebc 2c94 943d 3951 ed3d
00000190: b147 773c 956e 47be 962b 903e 2acb 47be
000001a0: fa7a 3c3e f47a 10be bc75 91be a699 c0bd
000001b0: 8ef7 483e b89e 383d d8e5 5a3e 141e 3f3e
000001c0: ce83 41be 598d 61be 97af b7bd 4867 f73d
000001d0: d026 e5bc 4eb5 563e 5d9a 6dbe 3975 793d
000001e0: 68cb 703e b49e 1bbe 74aa 913e f9d9 e23d
000001f0: f1e4 033d cc7e 9ebd eba3 263e 1ada 013e
00000200: 72ac 583e a4b7 92bd b85c bfbc 2faf 163e
00000210: 480a 31be b9b7 a9bc a864 303e 584c 963e
00000220: 2f3b 3dbd 1f66 383e 19b7 92be 784f 873e
00000230: a728 88bd d7e0 5dbe abf9 0dbe 7e2e 123e
00000240: e14d 9bbe 73aa 0a3e d3f6 8abe a835 71be
00000250: 2501 413e c3d2 89be c613 89bd 404f e23c
00000260: 9c09 7c3e 0290 91be baca 763e ab7e 023d
00000270: 0fc0 013e 59a6 8e3e b18f 70be 6ae8 98be
00000280: 9b76 8dbe 41a5 e0bd caac 863e 295e 21bd
00000290: 645e d2bd 590c 8f3e 9366 93bd 765e 6fbd
000002a0: bcee 82be 881e adbd ef4d 84bd ec63 f9bd
000002b0: 519e 66be 0734 643d d9a9 06be d274 1cbe
000002c0: 7b7d 503e 6571 7dbe 1557 8e3e d4d7 8abe
000002d0: 0f27 0abe f1e2 93be b27c f9bd 7b3c 2fbe
000002e0: e4ff 9fbd d11f 9bbd 7d0d 39bc f893 c83d
000002f0: 8470 7f3e 4038 8e3e 0968 6e3e 0023 0a3e
00000300: d239 8cbe a52b f1bd e6ad 5cbe c17f efbd
00000310: 7949 ac3d e35d 96be 743f 8cbe 9305 98be
00000320: ee7a 83be 4a2c 953e dc55 74be ec96 40be
00000330: d79e 183c 0cc6 c6bd 1ff2 2bbc 87a1 293e
00000340: dd57 983e 3013 803e 5352 6ebe a720 3f3c
00000350: a435 92bd 9a04 ea3d 9b59 c53c 3166 29be
00000360: d536 10be c7d0 bb3c 9b74 d33d b264 713d
00000370: c765 13be d80d dcbd 8b62 52bd 75b6 9e3d
00000380: 83b7 b7bd 5577 5b3e 0b8f 683e 6cf6 2abe
00000390: 297f 853e e45d 093c 832f 92be 2903 6c3e
000003a0: 765f 3a3c d814 17be 6892 803e d76e 3d3e
000003b0: 5b26 8cbe a999 7cbe c28d 5f3c 206d 8b3d
000003c0: 1ca0 20be 79d6 67be 20e1 33be 0e6f d4bb
000003d0: 0601 853e 7ea4 543e dc2f 8c3e 8be3 50be
000003e0: dae4 f9bb e9e3 2b3d 414e c53d a567 763e
000003f0: 27d1 203e 8e07 933e 79f3 85bd 0755 303e
-0.18833135 0.25693232 -0.18130638 -0.11363116 -0.08761425 -0.20555428 -0.30374846 -0.27172905
0.1965348 -0.25232467 -0.14416578 -0.028741753 0.24660535 -0.3039048 -0.15276326 -0.2357253
-0.27313742 -0.19924945 0.26635417 0.17861958 0.22735414 0.20520124 0.1941526 -0.28733832
-0.1124653 0.23966348 0.15976913 -0.19447164 0.013932851 -0.16560471 0.0351083 0.070975214
0.24119228 -0.029197872 -0.11181181 0.17997685 0.2093816 -0.13968565 0.26478204 0.1207547
0.24578848 -0.20527546 -0.30368006 -0.20610823 0.07879743 -0.2747104 0.07979615 0.11834465
0.12674458 0.29023743 -0.013117951 -0.005557894 0.25519824 0.30389547 0.04820952 0.19625741
-0.07157516 0.19612867 0.26989943 0.27769756 -0.3056562 -0.07519432 -0.26966435 -0.19289671
0.16470216 0.024482153 -0.27683133 -0.11932785 -0.14877683 0.2204866 -0.23001774 0.2760219
-0.12523709 0.25539568 0.19175006 -0.06422489 0.26994306 0.057714578 -0.16426267 -0.095397644
0.017007248 -0.12827589 0.057827324 -0.15411226 -0.054996096 0.06683856 0.23784912 -0.2145708
-0.1521899 0.002753614 -0.29500064 0.3060004 -0.27743238 -0.02110203 0.0805676 -0.1655413
0.16274269 -0.025235122 0.07254824 0.115877576 0.015092776 -0.19475777 0.28158253 -0.19511095
0.18406287 -0.14109403 -0.28410137 -0.09404306 0.19625685 0.04507324 0.21376741 0.18663818
-0.18897936 -0.22026576 -0.08969038 0.12080246 -0.027972609 0.209676 -0.23203416 0.060902808
0.23515093 -0.15197259 0.28450358 0.11076731 0.032200757 -0.07739028 0.16273467 0.12680855
0.21159533 -0.07163933 -0.023359641 0.14715265 -0.17289078 -0.020717489 0.17225897 0.2935512
-0.04619902 0.18007706 -0.28655317 0.26427817 -0.06648379 -0.21667801 -0.13864772 0.14275548
-0.30332854 0.13541584 -0.27141437 -0.23555624 0.18848093 -0.2691861 -0.066932246 0.02762568
0.2461304 -0.28430182 0.24100772 0.03185908 0.12670921 0.27861288 -0.23492314 -0.29864818
-0.2762955 -0.1096902 0.26303703 -0.03939644 -0.1027191 0.27939108 -0.07197299 -0.058439694
-0.25572765 -0.08453089 -0.06460177 -0.12177262 -0.2252133 0.05571368 -0.13150729 -0.15278938
0.20360367 -0.24750288 0.27800813 -0.2711779 -0.13491462 -0.2888408 -0.12181987 -0.17112915
-0.07812479 -0.07574428 -0.01129472 0.09793848 0.24945265 0.2777729 0.23281874 0.13489914
-0.27387863 -0.11775903 -0.21550712 -0.11694289 0.08412451 -0.29368505 -0.2739216 -0.29691753
-0.25679725 0.29135352 -0.23860878 -0.18807572 0.009315214 -0.09705743 -0.010494738 0.16565524
0.29754534 0.2501464 -0.23273592 0.0116655 -0.071391374 0.11426659 0.024090579 -0.16542889
-0.14083417 0.022926701 0.10324975 0.05893392 -0.14394294 -0.10744828 -0.05136351 0.07749645
-0.08970549 0.2143224 0.22710817 -0.16695565 0.26073578 0.008384202 -0.28551874 0.2304808
0.011375299 -0.14754045 0.251117 0.18499313 -0.27373013 -0.24667992 0.013644638 0.06807923
-0.15686077 -0.22640409 -0.17566347 -0.0064829653 0.25977343 0.20765874 0.27380264 -0.20399301
-0.007626158 0.0419654 0.096340664 0.24062975 0.15704785 0.287167 -0.06540579 0.17219935

model.gnn.0.lin_r.bias f4 [32]
00000000: 22dc eb3d 4579 00bd b6ab d33d 9f28 f3bd
00000010: 99a9 e63d dbe9 22be 48da 0c3e d000 073d
00000020: 388a 983c 38b9 e23c 3584 efbc f994 25be
00000030: a875 26be 4883 06be b789 21bd d13a b73d
00000040: 20f9 5dbd a18b fbbd 6648 64bd 64a3 a7bd
00000050: e1ea 42bd b436 91bd 0b73 763d f63d b0bd
00000060: 5094 84bd bb35 dbbd e15b cfbc a141 e2bd
00000070: 206e 843d dd14 9fbd 3376 c6bd c7b0 c23d
0.115165964 -0.03136565 0.10335486 -0.11872982 0.11262817 -0.15909521 0.13755143 0.03295976
0.018620595 0.02767621 -0.029237846 -0.1617011 -0.1625582 -0.13136017 -0.039437976 0.08946765
-0.054192662 -0.122824915 -0.055733107 -0.08185461 -0.04758728 -0.07090512 0.060168307 -0.08605568
-0.06473601 -0.10703608 -0.025312366 -0.11047674 0.06466317 -0.07767651 -0.096905135 0.09506374

model.gnn.1.att f4 [1, 1, 32]
00000000: c5c9 343d a397 57be dc93 a1be 54ef 153d
00000010: bc25 403d e92d 06bc 998b 25bd 28aa 833e
00000020: bcb2 60bd 6b27 e3bd 9824 c73e 91d0 cfbe
00000030: 7839 d73e d6d7 2ebe 7be9 283d 0208 86be
00000040: 760c e4bd 3748 2fbc 0b79 52be e75b 333e
00000050: 82e9 c1be ba2b 803e 3582 293e 8a23 6c3e
00000060: b6fd 283e e4da 033e 6a5c afbe 1da1 153c
00000070: 9a10 8ebe 256a c2be 0ad6 7e3e 7597 e53d
0.044137735 -0.21053939 -0.3155812 0.036605194 0.046910986 -0.008189657 -0.040416334 0.25715756
-0.054857954 -0.11091503 0.38895106 -0.4058881 0.42036033 -0.17074522 0.04123829 -0.26177984
-0.11135189 -0.01069837 -0.20553987 0.17515527 -0.37873465 0.2503336 0.16553576 0.23060432
0.16503033 0.12876469 -0.34250194 0.009132651 -0.2774704 -0.37971607 0.24886337 0.11210529

model.gnn.1.bias f4 [32]
00000000: 700f 3ebb ab25 603b d1f1 abbb d87d 0ebc
00000010: cb56 1a3c 9a62 7f3c f5c0 923a 9563 26bc
00000020: 745b 97ba eccd 2bbc 139c d73b 8e5b 163c
00000030: c46e 08bb 2e72 6f3c 48be 963b c1fe 4f37
00000040: e45e 963a a92a 8ebc 30da 2bba ca68 60bc
00000050: 1cdd 6f3c bd66 29bc 441f 92bc c451 49bc
00000060: c35f 6e3b a892 36bc 253d 55bc 28ef fb3b
00000070: ded8 88bb ad80 c6bb 45ee 913a 0203 cd3b
-0.00290009 0.003420214 -0.0052473326 -0.008696996 0.009420107 0.015587473 0.0011196422 -0.010155578
-0.0011547641 -0.010486107 0.006579885 0.009177102 -0.0020817975 0.014614625 0.00460032 1.2397476e-05
0.0011472371 -0.017354326 -0.0006555645 -0.013696859 0.014640119 -0.010339436 -0.017837174 -0.012287561
0.0036372996 -0.011143364 -0.013015066 0.0076884218 -0.004176243 -0.00605782 0.0011133632 0.006256462
