scripts_training/model.ckpt (torch, 265095 bytes, 117 tensors)

model.fake_node f4 [1, 32]
00000000: 59a6 8abe 9e4d dfbe 7e7e adbe d5c8 91bf
00000010: 773a 0140 87cf 783f 91d6 febe 9ce9 9cbf
00000020: 1c62 6abe ad12 913f 690a 5a3f b599 623f
00000030: 9f6c 0bbe 63b8 ca3f f5a3 ce3f 1629 a4be
00000040: d889 5a3e c1aa 163f bdf8 783e c446 5e3e
00000050: 8457 9a3f ffde 9dbf 8e78 90be 7686 93bf
00000060: e20d fd3e bfd1 0840 fe1c bc3e 3309 753d
00000070: 709d cbbf ba75 5fbf 15cb 3d3f 7006 693f
-0.27080038 -0.43613905 -0.33885568 -1.1389414 2.0191934 0.9719166 -0.49773076 -1.2258792
-0.22888988 1.1333824 0.85172135 0.8851579 -0.13615654 1.583752 1.6143786 -0.32062596
0.21341646 0.588543 0.24313636 0.21706682 1.2057958 -1.2333678 -0.28216976 -1.1525409
0.49424654 2.137802 0.3674087 0.059823226 -1.5907421 -0.8728901 0.74138004 0.9102545

model.node_embedding f4 [100, 16]
00000000: de60 20bd 2447 643e 3ec5 66be 4887 453e
00000010: 7933 c3bd d048 0f3d f58e 8a3d fbfb 25be
00000020: 19b3 253e 0efa e0bd 86d7 303e efa0 69bd
00000030: 8a6d 093d cf88 9b3c 404c 26be d28b 1e3d
00000040: d13c 2bbe 4be5 6abe 4048 1dbe 94d9 813e
00000050: ef40 553e 2396 82be 13ac 253f 3fd0 79be
00000060: 4caa e53d 54ca 2f3e 65d0 743e e9af 30bb
00000070: 26b7 bebd 3fe4 09bf ea42 b4bd 9c4e 98bd
00000080: c87e e83d 65fc 04be 26bb 133e e4f9 953e
00000090: fd82 e4bd 0f32 75bd 8da3 91be 972c c23d
000000a0: 4e82 693e 46ae e73d 6ad0 143d 7c4c 923d
000000b0: ac14 673e b56c 7bbd 39ee a1be ee76 e63c
000000c0: 7b66 9abe 6b66 943e cc86 dd3d dabd eebc
000000d0: efc6 4f3d f9ea bc3d 2dcd 463c ff75 3c3e
000000e0: 9cc2 92be 8a4b 103c b923 febd 136c 42bd
000000f0: b43f 56be 3869 db3d 24ca 05be f1a8 b7bd
00000100: 9637 9a3e f77a 24be 79d5 83be 9896 f33d
00000110: ec91 03be a43b 87be 8241 933d 72c3 16be
00000120: 44cf 863e e312 8f3e 18b5 8b3b 487d b73e
00000130: 414b 6cbd a434 653c 20da adbe 4924 45bd
00000140: 99a5 23bc 2e97 7d3e f58e 3f3c bf77 d9bd
00000150: c1c6 a4be 8e2a e53c 543c 1e3d 6070 853c
00000160: 8523 6d3e f3f7 97bd f36c cbbd b7bf 423d
00000170: 6ecb 83bd 0cd3 353e bdd3 bf3d 7e43 dcbd
00000180: 7d49 81bd 4e1a 97be ba49 00be 9bdb a63e
00000190: 09bb c73e 9d9f 3e3e 05da 97be 896e c7bc
000001a0: e030 13bd d460 473a f773 b13e 08a4 013e
000001b0: e53f ad3d 1899 07be 04a3 d4bd 0877 b3be
000001c0: 1822 993e 5efa 13be 446a 54be b503 363e
000001d0: d781 a93d 12ca 993c 3e47 88be 72bc be3d
000001e0: 0df7 3b3d 77b4 923e 60b5 a23e 7435 2d3e
000001f0: db97 a83d 5f81 86be 2735 d7bd f8ce c9bd
00000200: e72d 343e 31e9 9a3c a828 62be 609e 343d
00000210: b77a a63d a1b7 66bd 44c1 c43d c0d6 99bd
00000220: 9a19 743d df13 8b3e 8084 9b3e 5e1f 403e
00000230: 797a f5bd 9eb2 78be 39fa a7be 4d1f 33be
00000240: bca4 913e 774f 33be 3ec5 86be 926a f13c
00000250: f1dc b9bd 3fab b93d 9311 3cbe 2a59 22be
00000260: 88ed 2d3e cc0d 843e 4983 4e3e e8dc 533e
00000270: a5f9 fabc 8b59 8ebd 32fc 0dbe 3244 96be
00000280: 4428 e73c 7d6e cfbd 4be1 a63c 8f1c 8f3d
00000290: f691 183e 6789 65be 7cd2 f8bd 7a0b 9abe
000002a0: 4aa9 5f3c c146 a43e 4f88 043f 998e 843d
000002b0: 9319 4b3e 48b1 93be 52ca 97bd 71cd 58be
000002c0: 62a4 b23d b803 5fbe 3e2c 283e f48c be3e
000002d0: 7e55 993e d24b e13d 2fa9 adbd 3786 e6bd
000002e0: 4ca1 8a3d ed50 94bd 4f01 b3bb f533 6bbe
000002f0: 5ff0 5ebd 213b 36be 5d8e eabd 7fa0 303e
00000300: a0c2 913e 102a ed3d 7d09 9ebe 588f ddbd
00000310: 7204 353d 8347 d9be 262b 82bd f2ea b7be
00000320: 8614 6dbb 41a4 a1bc 7392 503d 1641 203e
00000330: 28e8 8cbd 980c 5f3e 2d52 cbbd fc92 0dbd
00000340: f343 283e 48f4 5d3d 977f cdbe 8d02 e8bd
00000350: 459e 863e da3d 32be 0cd9 b4bd 6e97 29bd
00000360: 1810 fa3d c7f2 823e b326 de3e ace8 823e
00000370: 3f1d c83e 5181 2abf 37cb fbbb 2948 cebe
00000380: bb84 623c 2c5c 28be 8b36 45be 7e2a 753e
00000390: b4df f4bd 5454 65be bb07 0fbe e433 91be
000003a0: d6cc 1f3e c8ea d2bd a8c2 5e3e 7b13 86be
000003b0: f0af b6bb 2e47 513b 7d32 5cbe 6ed9 cdbc
000003c0: 3c3d aabb cddb 94bd b069 de3c e7c2 45be
000003d0: ed49 273e a634 c4bd e307 3c3e 1a74 c8be
000003e0: ca6c 6e3e 614b 8d3e 3328 813d 563b 973e
000003f0: ab3a 45be 0853 49be 6cd9 f8bc 65a6 683e
-0.03915488 0.22292763 -0.2253618 0.19289887 -0.09531302 0.03498155 0.06765548 -0.16209404
0.16181602 -0.10985194 0.17269716 -0.057038244 0.03355173 0.018986134 -0.16240025 0.03870756
-0.16722418 -0.22939031 -0.15359592 0.2536131 0.20825551 -0.2550517 0.6471569 -0.24395846
0.11214122 0.17167026 0.23907621 -0.002696032 -0.093122765 -0.538639 -0.08801825 -0.074368685
0.113523066 -0.12986906 0.1442686 0.29292214 -0.111577965 -0.059862193 -0.28445092 0.09481161
0.22803614 0.11312537 0.03633157 0.071434945 0.2256648 -0.061382968 -0.31627062 0.028132882
-0.3015631 0.2898439 0.10816726 -0.029143263 0.050726827 0.09224505 0.012133879 0.18404387
-0.286641 0.008807072 -0.12409157 -0.04746635 -0.20922738 0.10713428 -0.13065392 -0.0896777
0.30120534 -0.16062532 -0.25748804 0.11893958 -0.12848634 -0.2641269 0.07190229 -0.14722994
0.26330006 0.27944097 0.0042635314 0.3583777 -0.057688955 0.013989601 -0.3395548 -0.048130307
-0.009988212 0.24764702 0.011691798 -0.10618543 -0.32182887 0.027974393 0.038631752 0.016288936
0.23158081 -0.074203394 -0.0993289 0.047546115 -0.064352855 0.17756289 0.09366558 -0.107550606
-0.06312845 -0.29512256 -0.12528124 0.3258942 0.39009884 0.18615575 -0.29658523 -0.0243447
-0.035935283 0.0007605676 0.34658787 0.12660229 0.084594525 -0.13241994 -0.10382655 -0.3505175
0.29908824 -0.14450976 -0.20743662 0.17774852 0.08276718 0.018773112 -0.26616853 0.09313287
0.045889903 0.2865331 0.31779003 0.16914922 0.08232089 -0.26270577 -0.10508185 -0.09853929
0.17595635 0.018910022 -0.22085822 0.04409635 0.08128875 -0.056327466 0.09607175 -0.075116634
0.059594728 0.27163598 0.30374527 0.18761966 -0.119862504 -0.24286887 -0.32808092 -0.17492409
0.28445995 -0.17510782 -0.2632236 0.029469762 -0.09075344 0.09065866 -0.18366079 -0.15854326
0.16985142 0.25791776 0.20167269 0.20689738 -0.030636618 -0.06950673 -0.13865736 -0.29348904
0.028217442 -0.10128496 0.0203711 0.06987869 0.1489943 -0.22415696 -0.12149522 -0.3008688
0.0136512015 0.3208523 0.5177049 0.06472511 0.19833975 -0.28846192 -0.074116364 -0.2117212
0.0872276 -0.21778762 0.16423127 0.37216914 0.29948038 0.1100079 -0.08479535 -0.11256068
0.06769046 -0.07241998 -0.0054628025 -0.22969039 -0.054428454 -0.17795993 -0.11452935 0.17248724
0.284688 0.115802884 -0.30866614 -0.10818356 0.044193693 -0.42437372 -0.06355886 -0.35921437
-0.0036175563 -0.019731643 0.050920915 0.15649828 -0.06880218 0.21782148 -0.09927783 -0.034564003
0.1643217 0.054188043 -0.40136406 -0.113286115 0.26292625 -0.17406407 -0.08830461 -0.04140418
0.12210101 0.2557585 0.433889 0.2556814 0.39084813 -0.6660357 -0.007684137 -0.4028943
0.013825591 -0.16441411 -0.19259088 0.2394199 -0.119567305 -0.2239545 -0.13967793 -0.28359902
0.15605482 -0.10298687 0.21753943 -0.26186737 -0.0055751726 0.0031933296 -0.21503635 -0.025128093
-0.005195288 -0.07268486 0.027150005 -0.1931263 0.16336794 -0.095803544 0.18362384 -0.39151078
0.23283687 0.27596572 0.063064955 0.29537457 -0.19260661 -0.1966058 -0.030377112 0.22719724

model.encoder.model.0.weight f4 [32, 17]
00000000: 631f 803e 6ef4 b83e 85d4 86be c230 8f3e
00000010: 9ff4 e83e 6add 23be ca17 b53d cdb1 913d
00000020: 62e1 e23d c9b4 043f bb3b fc3e 7c41 abbe
00000030: fe2a 98be d17b dd3d 871c 033f 2e25 f3be
00000040: b66b 613e 6836 a43e 3c58 18be 2e9e a9be
00000050: 0718 833e f57e 0abd 5ff6 d73e bc98 e53d
00000060: 4745 f93e c837 debe 2b60 db3e 7a4d 653e
00000070: bfd7 76be 320b c1bd 480f e6bd adcc 8dbe
00000080: eed7 933d e690 763e fbcf a23e 2ecb 193e
00000090: 0372 dcbd 9daf 3bbe 5133 2cbd cc02 743e
000000a0: 030f c1be 62c6 b23e 29fd 58be 436d 543e
000000b0: 7d51 353e 9f50 fabd bf3b ee3b f36b 783e
000000c0: 777b 253e fda2 3bbe ab15 c83c 0d8e 9fbd
000000d0: 3f96 81be 7a9b 8f3e b89d 413e 5ed8 ccbe
000000e0: 8cbf 1bbe ce35 ddbc 413f febd 3c9c a53e
000000f0: 220d c9be 78af 23be 19af 163e 767c 343c
00000100: b2c6 893e a54d a6bc 9bdc 983e 0faa 943d
00000110: f421 cd3d e13d c1be 51f5 08be 5e40 35be
00000120: 16b5 17bd e0d8 6d3e 1b1c 713e d9ee 6bbd
00000130: d45b fcbd 0e62 723e 086c 51be c391 c73e
00000140: ebf5 543e 84ac 31be 9977 76be e2c3 06be
00000150: 40fb 9c3d eca4 23bd ef66 a2bd 19a5 75be
00000160: 1c08 a6be 86b1 e6be b8b5 a53d 10b0 4e3e
00000170: dad2 b63e dc2a d5bd 9fc7 783e 2e23 28be
00000180: a858 873c 238b 843e 37f6 c9be 5394 dfbe
00000190: 582e b3bc e3e5 7bbd b2ee 66be 8426 50bd
000001a0: f36d 853c 4e19 0a3e 39e2 ea3e 0045 f03d
000001b0: 5220 afbe a706 4dbe 9993 08bc 6569 823e
000001c0: 25a7 093e 9e32 643e bb38 61be bab0 34be
000001d0: 76ba 41be 0c32 ac3d 5f54 91be e08d 02be
000001e0: b213 04be 61af 9bbe 51fd 473e 7034 c43d
000001f0: 7f17 ee3e 4f3e 92be 1162 f83d b773 acbe
00000200: 4bc4 8c3e 3431 d83d 2634 e9bd dd44 b13e
00000210: 822e 18be 18c2 df3e 413c b4be d723 1a3e
00000220: 5e6f 133e 1bcf b4be 2ed9 a0be 36fc 0abe
00000230: 42b4 a53e cc17 00be 57db 03bf 8466 b13e
00000240: 4db1 d4be 27c5 cb3e 8d1a a1bd 3dc0 743d
00000250: 45a6 ed3e b682 013e 2f92 25be 937c 383b
00000260: 9cb9 8d3d 7c9d 6c3e 0b7a b5be ea54 d3bd
00000270: 2f07 713e d97f c5be 59d2 93be ac25 be3e
00000280: 39c6 9a3d 2f59 d3bb 6b52 08bd 3970 a8bd
00000290: 0e21 013f d535 473e cbcc 413e 3896 96be
000002a0: bb40 973e 683c 433c 26b7 99be 977c d0be
000002b0: 0680 8dbe 00b7 0f3c 281b 76be dc1a 033e
000002c0: 67ae 91bc bba0 823e 6012 60be 9e06 013e
000002d0: cd2b 9dbe 5b0c e23e 729b 95bd b5dc 023e
000002e0: 8054 d9be c53b 963e 8c70 cebe 1afb 033e
000002f0: 20c3 4e3e 41bc cebe 51d7 653e 2673 d13d
00000300: 7df7 a83e d7f8 883b a30d 92be 2436 e23c
00000310: 0093 be3b 72df bd3e 5c93 c13d 9ae7 e43e
00000320: 52d6 813e 6b22 b3be 8938 54be 2700 2f3e
00000330: de35 523e 368b bf3e d90a 1abe 5627 173e
00000340: 5c13 0c3e 6e84 c03e fff1 28be 3552 fcbd
00000350: bc99 2cbe 353f 923e d330 783e a914 ad3e
00000360: 1763 d5be 9b79 cc3c 28e5 9c3e 404a b2be
00000370: 6454 013e c70b d73d 0a31 013f d649 2bbe
00000380: 9952 8fbe 43ac 8cbe 4b67 d43d 07ff b0be
00000390: f552 a9be 4eaf bcbe f1e0 d03e 8331 743e
000003a0: 8764 be3d 292f 9b3e c277 823e b042 cebd
000003b0: a700 04bf df4f 353e d8e5 543b 74df 773e
000003c0: 59df b53d 9737 5cbe 23f7 ea3d 7542 cf3d
000003d0: 0cb1 73be ce42 a7be b39a 74be 283b 2e3e
000003e0: 59bc d03e cf93 01be 6e86 a3be d0ce 453e
000003f0: 02e0 75be 0f17 cabd f927 adbe b565 adbe
0.25023946 0.36123985 -0.26334015 0.27966887 0.4549913 -0.16002432 0.08842428 0.07113991
0.110781446 0.51838356 0.4926432 -0.33448398 -0.297203 0.10814632 0.51215404 -0.47489303
0.22013745 0.3207276 -0.14877409 -0.33128494 0.2560427 -0.033812482 0.42180154 0.112107724
0.48685667 -0.43401933 0.42846808 0.22392836 -0.24105738 -0.094259635 -0.112333834 -0.27695218
0.0721892 0.24078712 0.31799302 0.15018913 -0.107639335 -0.1832871 -0.042041127 0.23829192
-0.37706766 0.3491698 -0.21190323 0.20744805 0.17706867 -0.122224085 0.007270306 0.2425993
0.1616038 -0.18323894 0.024424395 -0.07790766 -0.2530994 0.28048307 0.18907821 -0.40008825
-0.15209788 -0.027003195 -0.124144085 0.3234576 -0.39267832 -0.15984905 0.14715232 0.011016002
0.26909405 -0.020300696 0.2985581 0.072589986 0.10016242 -0.37742522 -0.13374831 -0.17700335
-0.03703793 0.23227262 0.23545878 -0.05760083 -0.12322202 0.23670217 -0.20451367 0.38978395
0.20796935 -0.17350966 -0.2406906 -0.13160661 0.0766511 -0.039952204 -0.07929789 -0.23988761
-0.32428062 -0.45057315 0.08091301 0.2018435 0.35707742 -0.104085654 0.242949 -0.1641967
0.016521767 0.25887403 -0.3944566 -0.4366785 -0.021872684 -0.061498534 -0.22551993 -0.05081798
0.01628778 0.13486215 0.4587572 0.11731911 -0.34204346 -0.20022069 -0.008335971 0.25471035
0.13442667 0.22284934 -0.21994297 -0.17645541 -0.18918785 0.08407983 -0.28384683 -0.12749434
-0.12898138 -0.3040724 0.19530226 0.09580314 0.465023 -0.28563163 0.1212808 -0.33682033
0.2749351 0.1055626 -0.113869 0.3462285 -0.14861491 0.4370277 -0.3520222 0.15052734
0.14397952 -0.3531426 -0.31415695 -0.13572773 0.32364088 -0.12509078 -0.5150656 0.34648526
-0.4154152 0.39798853 -0.07866392 0.059753645 0.46415916 0.12647519 -0.16169046 0.0028150424
0.06920168 0.2310695 -0.35444674 -0.103189304 0.23537897 -0.38574103 -0.2887142 0.37138116
0.07557339 -0.0064498405 -0.033281725 -0.0822453 0.5044106 0.19454129 0.18925779 -0.29411483
0.29541573 0.011916257 -0.30022544 -0.40720055 -0.27636737 0.008771658 -0.24033797 0.12803215
-0.017783357 0.25513253 -0.2188201 0.1260018 -0.3069748 0.4415005 -0.073050395 0.12779506
-0.4244728 0.29342476 -0.4032024 0.12888756 0.20191622 -0.40378 0.22445418 0.10227041
0.3300132 0.0041800546 -0.2852603 0.027613707 0.0058158636 0.37084538 0.09451935 0.44707948
0.25358826 -0.34987196 -0.20724691 0.17089902 0.20528361 0.37410897 -0.150432 0.14761099
0.1367926 0.37601036 -0.16498564 -0.12320367 -0.1685552 0.28563848 0.24237375 0.33804825
-0.41677162 0.02496033 0.30643582 -0.34822273 0.12629849 0.10500293 0.5046545 -0.16727385
-0.27992705 -0.27475175 0.10371264 -0.3456957 -0.33071104 -0.36852497 0.40796617 0.23847012
0.09296518 0.30309418 0.25481993 -0.100713134 -0.51563495 0.1770625 0.003248563 0.24206334
0.08880491 -0.21505581 0.11472919 0.101200975 -0.23798007 -0.32668155 -0.23887138 0.17014754
0.40768698 -0.12654041 -0.319385 0.19317174 -0.24011233 -0.09867679 -0.3381956 -0.3386666

model.encoder.model.0.bias f4 [32]
00000000: 1fc2 3a3d d235 a2bd 4f7d 0d3e 229c 073e
00000010: 0e61 3ebd 96e3 40bd 3ac8 293e e0fd da3e
00000020: f6e4 bb3d 8abd 253e bc4b 6c3e 8bbc 2b3e
00000030: f4cb 3a3e 92c8 583d 971c 423e 7015 b13e
00000040: 06b2 af3d 1225 83bd 6efb 4e3e fded d53d
00000050: ed9a 39be 17b9 683e 2150 273e 6e52 c0bc
00000060: 0108 0e3c dbf7 b83e 6fc1 e0bd e9a4 8e3e
00000070: 34b5 70be 3978 023e bdb9 8bbd 89f1 633d
0.045595285 -0.07920422 0.13817333 0.13243154 -0.046479277 -0.047092043 0.16580287 0.42771816
0.0917453 0.16185585 0.23075765 0.16771142 0.18241864 0.052925654 0.18956219 0.34586668
0.08578877 -0.06403555 0.202131 0.10445783 -0.18125506 0.22726856 0.1633916 -0.023476806
0.0086689005 0.361266 -0.109743945 0.2786019 -0.23506624 0.12741174 -0.06822536 0.055650268

model.encoder.model.2.weight f4 [32, 32]
00000000: 4e55 94bb 12d5 4ebe 13bc 81be 0a1c 7fbd
00000010: 17e5 083e 0e21 e03e e70e 60be 5a4c e53d
00000020: cd6f 073d ed8a 333e 5329 bf3e 234a 0b3d
00000030: e364 91bd 29d8 ccbe a739 d5bd 3185 05be
00000040: 715b 87be 5e20 b23d 1363 a23c f9d7 e63e
00000050: 18eb e7be 5c73 dabd 6841 1ebd 9176 51bd
00000060: 4cfe 0e3d f3e0 543d c7ee 0d3e adbc a43e
00000070: b16e 94be 7b40 5f3e 32b7 cd3d e16b a4bd
00000080: 60ba 123c d6ee f53d a2ee c63e 6c2a 60be
00000090: 2c98 113e 03c3 a83c 131b b33e 11b8 7bbd
000000a0: 485e 44bd 1119 c7be 0c96 a53e e432 84bd
000000b0: 2019 38be afe2 5abe 7fe8 9b3e 4fe4 923d
000000c0: 404f 10be 74e8 4f3e be71 1cbd f1ce 413e
000000d0: e8cc 9c3e ec30 6d3e b667 ae3e bfc5 3e3d
000000e0: 0a0f 313e 1e72 623e be9d 51bd fc37 963d
000000f0: eb75 e9bd e9bf cc3c 6478 03be aa5c 813b
00000100: 46a6 fcbe a6a1 9cbe 6bb6 b1be f5da 2fbe
00000110: c870 a33e 7019 1f3e 2e97 8bbd 1612 363e
00000120: b8bd b5bd 87e2 1d3e a5fd 813e 16aa 133e
00000130: 7874 83be d8e2 e93c cc99 b5be 5f81 d53d
00000140: a90a ef3d ddc8 90be 3b01 a23e 257e b7ba
00000150: e865 1cbe b0b5 ef3c a358 7a3e 3f2a 0dbe
00000160: eb13 8d3e ab27 003d b46a a73e 219e 98be
00000170: c564 13be 9acb 823e 9785 89be 5850 90be
00000180: f988 8bbd 4e63 12b9 4f5e 49be d275 2ebe
00000190: 9654 85bd 0532 b73e ee2e 5e3c 4a44 bf3e
000001a0: 6232 1a3e ba9d 2dbe 3287 febd 8ce5 ba3e
000001b0: 93e4 be3d 363d 5e3e fd29 0dbe e896 203d
000001c0: 097e 03be 21ce d03d 50a0 733d 25e4 cf3d
000001d0: 46ee cc3d 3880 9f3d 04c2 b73e aa54 ea3b
000001e0: 7335 a73d d96d ac3e 79fc d13d 3e3b c13c
000001f0: 445b a63d bcb2 bb3e b043 80bd ca22 15be
00000200: a573 9f3e 7f3e 7b3e 50d5 903e 239a 8dbe
00000210: 4fd8 a43d 87c1 593d 3a4b 3e3e d9f2 5f3e
00000220: 91d8 403e e1ec c3bd 0566 c83c 447e b63e
00000230: c571 203d d46e 9c3e 4dee 8dbe f221 4dbe
00000240: 76ce 00be 0477 e73d 9e1c 2cbb 6b57 6c3e
00000250: a01c 4fbd d99f 2e3e f67f de3d 273e ce3d
00000260: 7fe8 c83e f9ac 48be f19e 4bbd 0b37 923d
00000270: 3a84 46bd f960 fd3c 00f9 b93e f9ee 44be
00000280: 99a2 223e 24fc 5a3e 7e02 933e 05f3 5b3e
00000290: 6fc8 26be fa5c 4b3d 44fd ee3e 1575 27be
000002a0: f127 9f3d 404a dabc 429b 64bd 2466 773e
000002b0: 386f f73e 9a1f 09bd ece7 fc3e c180 04be
000002c0: 526c 073e 87de a5bd c779 75be f96f 363e
000002d0: 1e7a 9e3e 6e2c b4bc 98ef 433d 9e0b bebe
000002e0: 8188 0e3e 65f6 37be 7056 b4be b02e e83e
000002f0: 8679 363e 8621 3a3d 615a 6c3e a712 ed3d
00000300: 1d40 a53e c57e c7bd 2a77 f03e fac4 20be
00000310: e0b8 7ebe 962a 173c ba4a 763e 49e3 8f3e
00000320: e4de ea3e 5d95 003e 8dc9 86bd 5dfe cb3d
00000330: c041 c43e 5225 b7bd e003 cb3d 0b73 973e
00000340: 982a 643d 59c8 dc3e 3e98 bb3e df9e 93be
00000350: 9623 27bd ff54 7e3e c59e 103e 2a8c ab3d
00000360: 4acf d8bd 1a53 b53e 922d 7fbd 1314 b03e
00000370: 817d 20be 3e13 a93e 3d3f b03e ead6 ba3e
00000380: c8ad b13d 4b1a 273d 9983 0a3f ea45 c9bc
00000390: 73a1 6cbc d9f8 6b3e 0ef7 563e f27d b03e
000003a0: 8d60 8f3e f464 79be 18a3 18be de70 0e3e
000003b0: e446 ff3e 2df8 343d ffb4 a6bc a35c be3e
000003c0: df2d 913e 2dc7 623e 5875 7b3e 7c48 37be
000003d0: 7ac9 ce3e 89fe ad3e 0ba6 db3e 3f89 823e
000003e0: 83df cf3e 46b2 063f 8345 c73e a58f 6c3c
000003f0: 7a12 08be ec4e 813d a4ff 953e 3404 db3e
-0.0045267707 -0.20198467 -0.25338802 -0.0622826 0.13368641 0.4377522 -0.21880685 0.111962035
0.033065606 0.17533465 0.37336215 0.03400625 -0.07099321 -0.40008667 -0.10411387 -0.1303909
-0.26436952 0.0869758 0.019822633 0.4508665 -0.4529655 -0.10666534 -0.038636595 -0.051138464
0.034910485 0.05197234 0.13860618 0.32175198 -0.289907 0.21801941 0.10044707 -0.08028389
0.008955568 0.12008445 0.38853937 -0.21891183 0.14218205 0.020600801 0.34981593 -0.061454836
-0.047941476 -0.38886312 0.3234104 -0.06455019 -0.17978334 -0.21375535 0.30450818 0.07172453
-0.14092731 0.20303518 -0.03819441 0.18926598 0.3062508 0.23163193 0.340635 0.046575304
0.17290893 0.22113845 -0.051175825 0.07334897 -0.11399444 0.024993854 -0.12838894 0.003947814
-0.49345607 -0.30592078 -0.34709486 -0.17173369 0.31921983 0.15537047 -0.068159446 0.17780337
-0.088740766 0.15418445 0.25388828 0.14420351 -0.25674796 0.02855055 -0.354689 0.10425066
0.11671955 -0.28278247 0.31641564 -0.0013999386 -0.15273249 0.02926144 0.24447875 -0.13785647
0.2755426 0.03128783 0.32698596 -0.29808143 -0.1439391 0.2554596 -0.26859733 -0.28186297
-0.06813235 -0.00013960639 -0.19664882 -0.17037132 -0.06510274 0.3578035 0.013560994 0.37356788
0.15058282 -0.16954699 -0.1242813 0.36503255 0.09320941 0.21703038 -0.13785549 0.039206415
-0.12841047 0.10195566 0.059479058 0.10150937 0.100063846 0.07788128 0.3589021 0.007151206
0.081644915 0.33677557 0.102532335 0.02358782 0.08122876 0.366598 -0.0626291 -0.14564052
0.31142917 0.24535559 0.28287745 -0.2765666 0.0804907 0.053163078 0.18583384 0.21869983
0.18832614 -0.095666654 0.02446271 0.35643208 0.039171 0.30553305 -0.27720872 -0.2003248
-0.12578759 0.11301997 -0.0026262174 0.23080222 -0.05056441 0.17053165 0.1086425 0.10070448
0.3923988 -0.19597234 -0.049712125 0.07139405 -0.048465945 0.03093003 0.36322784 -0.19231786
0.15882339 0.21385247 0.2871284 0.21479423 -0.16287397 0.049649216 0.466776 -0.16353257
0.0777129 -0.026646733 -0.055812128 0.24160057 0.4832704 -0.033477403 0.49395692 -0.1293974
0.13224915 -0.08099084 -0.23972236 0.17816152 0.30952543 -0.021993842 0.047835916 -0.37118238
0.1391926 -0.17965086 -0.35222197 0.4534812 0.17819795 0.045442127 0.23081352 0.11575823
0.32275477 -0.09740976 0.46965915 -0.1570014 -0.24875212 0.009226462 0.24051943 0.28103092
0.45873177 0.12556978 -0.065814115 0.09960625 0.38331413 -0.08942665 0.099128485 0.29579958
0.055704683 0.43121603 0.3663959 -0.28832147 -0.04080542 0.24837111 0.14123066 0.083763435
-0.10586412 0.35414964 -0.06229932 0.34390315 -0.15672876 0.33022493 0.34423247 0.3649209
0.08675724 0.04079656 0.5410705 -0.02456947 -0.014442789 0.23044147 0.20992681 0.3447109
0.2800335 -0.24354917 -0.14905965 0.13910243 0.49858773 0.04418199 -0.020349978 0.3718005
0.2835531 0.22146292 0.24556482 -0.17898744 0.4038809 0.33983257 0.42900118 0.25495335
0.40600213 0.52615774 0.3892022 0.014438544 -0.13288298 0.06313881 0.292966 0.42776644

model.encoder.model.2.bias f4 [32]
00000000: c940 263d 62bc 0c3d 189d 4f3e c446 693e
00000010: af58 253e 946c b03d f9fe aebc 280c 913c
00000020: 1205 b6bd b442 cd3d c708 c93d 50a6 bbbb
00000030: 17e2 58bd fda4 863d d6a8 363e a606 5d3e
00000040: e60d c4bd 39b7 89bd e2ab c03c beec 433e
00000050: 853f 843e 6212 9d3d 8bc8 3cbe 1411 7e3a
00000060: 2210 3d3d 288e 5dbe e2c8 b5bd 917d 9dbc
00000070: 257a 9cbd 54b6 8abd 0396 e1bc fdac bd3d
0.040589128 0.034359343 0.2027477 0.22780901 0.16147111 0.0861446 -0.021361815 0.017705992
-0.08887686 0.10022488 0.09816127 -0.005726613 -0.05294999 0.06574438 0.17837843 0.21584567
-0.095729634 -0.067244 0.02351946 0.19133279 0.25829712 0.07669522 -0.18435876 0.0009691876
0.046157964 -0.2163626 -0.08876206 -0.019224914 -0.07640485 -0.067730576 -0.027537351 0.092615105

model.encoder.model.4.weight f4 [32, 32]
00000000: fdaa 9c3e 311b 9ebd 16a2 df3c 6143 e53d
00000010: 8790 d8bb 5c37 b83e 7061 19bb 4c8e a9be
00000020: e55b 883c 2964 603e 71af 1fbd f61c a13d
00000030: ad0b 753e 768a 773b 01be 8e3e 6403 4fbc
00000040: a78c 8abd 2deb 07be 43f3 cdbd d6a1 8e3e
00000050: 5d1b 45be 84aa 9b3e dc75 57be b126 393e
00000060: b001 afbe 0f5b 89bd ceba 653e 8702 10be
00000070: 555c 8abe 6c4b 0fbe 1ca1 66be 4e8b 9dbe
00000080: 414e 8fbd 1d2f 923e ac04 75bc d73d 423e
00000090: 6a46 3a3e 7129 7d3e 5035 333d 69f7 00be
000000a0: fd9c d73e a0da 153e 2a72 88be 495e 993e
000000b0: a58b 493e a684 96bb a543 dfbb 4d7f 40be
000000c0: 451a 94be 9abd d73d a342 1b3d dc39 4d3d
000000d0: b139 a6bd 9a17 f33e f39a 75be 8102 ed3e
000000e0: e1c4 f83d 1867 9b3d d4de 763d 1d2b d33d
000000f0: 7246 8c3e 2730 85bd e7c4 6a3d ac85 b03d
00000100: f304 05bd ba2a 90be feb6 9dbe 227c 85bd
00000110: 028a 9bbe 18a3 bdbc 2d77 cbbe eb5b b6be
00000120: 64d7 35bd 74bb 003d 64be e83d bd41 1f3d
00000130: b805 97be fd04 8abe 28e8 da3d c540 efbd
00000140: a0bd 96bd ef44 d63d 5e1c e6be 2422 913e
00000150: 54d3 bebd 3676 4dbd bcdd bf3d 794d 99be
00000160: 28e1 11be 0fa3 cbbd 9fcd 403e a574 77be
00000170: 544c a1be 88cb 11bc 1e80 c5be 7641 a4be
00000180: 5ade 1b3e 205d 463e b1c8 67be e657 80be
00000190: 2451 0bbe 992f 053f 8c53 cfbd 503c de3e
000001a0: 1f5b 993e 3a64 cb3c 1e0f 99be e4d6 55be
000001b0: 0f0c 023f bbeb 7bbd 319f 09be 87ba bd3e
000001c0: e88a ea3d 52e3 d0bd 5a93 8d3e 0d58 98be
000001d0: 2dfa f73e 811f 133f cc69 b33e 97dd 10be
000001e0: 9f94 733e c87c 85be f13c 2e3d 2811 073e
000001f0: bb9b 53bd df5f 693e 55ae c33e c1c9 c43d
00000200: 31f4 b5bd b354 9dbe b4ac 23be a052 06be
00000210: 5ed4 f63d 9eb3 9abe e203 cbbe b186 c2be
00000220: 9313 13be 19a6 213d 8282 aa3e 153c 583c
00000230: a384 5e3d 48ca bbbe 52a7 793e 88f3 5abe
00000240: a2b1 46be a76f 57be 4f14 e63a bdea 583e
00000250: 5ecf 313e eebc dbbe 6097 bbbd 046e 6f3d
00000260: 4094 8ebe b5ff 4ebe 6b27 a53a 6121 7abe
00000270: 8c76 6e3e a4a9 923d 8b08 ad3e e349 723e
00000280: 8a44 a3be 6280 dbbd 89ca 3d3d 814e 2cbe
00000290: 47ce 9dbd 02e0 47be 2fdf 35be 2f3c 993b
000002a0: 0f4a 933e 5a40 82be 90a6 c93e 4dab f7bd
000002b0: bf6b 5dbd 46db bfbe a017 54be 4bbc 94be
000002c0: e404 00be b8d0 a3bd 84be a9be 94f1 033e
000002d0: 8eb4 41bd 479d c4be 9d79 d9be e00b c2be
000002e0: dd7b 55be eb90 593e 9246 933e b4d3 553d
000002f0: 7a71 debd 9bd3 d93e 046c 583b 84f7 2ebe
00000300: 2838 f93e 7377 28bd bc24 23be 8cbf 4c3e
00000310: 935a 01bd c8a4 3f3d e0c4 a9bd 525f a9bd
00000320: 9131 8d3c a2b6 7d3e b685 07bf 2a1a 003e
00000330: 5e35 b1bd 7aee 313e e7ca 373e 0ac9 7c3e
00000340: d419 b93e 5cef 5f3e c748 b2be fa06 76bd
00000350: 3979 673e fac5 843d 1941 8b3e 1374 2a3e
00000360: 4fbd 293d eb5d c0bc 7176 b9bd fe91 ae3e
00000370: b87d d03d a74d ebbe abed 4d3d 8178 96be
00000380: db69 143e 091a ee3b 6c89 66be a9c4 8ebe
00000390: 0c52 bf3d 7d68 22bd 539b 49be 8304 243d
000003a0: 4782 d43d 807c 69be 4294 b3bd 4b94 ea3e
000003b0: 33d5 b23d e00a 6b3e 75f5 2f3e 15cd 893e
000003c0: 9c41 27be af29 073e 13d6 e3be 05ba 063e
000003d0: 95d6 b73d c485 013f 5ae3 75be 3f69 57be
000003e0: 9f89 083e 5c1c 0cbe b99d 8a3e 2cff 2fbe
000003f0: 02f9 90be 2ade ad3c bd38 8f3d 5251 383e
0.30599204 -0.0772003 0.027298968 0.11194492 -0.006609026 0.35979736 -0.0023404025 -0.33116376
0.016645381 0.21913208 -0.038985673 0.07866852 0.23930235 0.0037771738 0.27879336 -0.012635086
-0.067651086 -0.13273306 -0.10056164 0.27857846 -0.1924872 0.3040353 -0.21041054 0.18081166
-0.34180975 -0.06706821 0.22434542 -0.14063464 -0.2702357 -0.13993615 -0.22522396 -0.30770344
-0.069973476 0.2855157 -0.014954727 0.18968903 0.18190923 0.2472284 0.043752015 -0.1259438
0.4211196 0.1463418 -0.266496 0.29954746 0.19682176 -0.0045934496 -0.006813484 -0.18798561
-0.28926292 0.105342105 0.037905347 0.050104007 -0.081164725 0.47478944 -0.2398489 0.46290973
0.12146927 0.07588023 0.0602711 0.103109576 0.27397496 -0.06503325 0.057316687 0.08619246
-0.032475423 -0.28157598 -0.30803674 -0.06517817 -0.3037873 -0.023149058 -0.3973936 -0.35617003
-0.044394866 0.03142877 0.11364439 0.038881052 -0.2949655 -0.2695693 0.106888115 -0.11682276
-0.07360387 0.10462367 -0.44943517 0.2834636 -0.093176514 -0.050161563 0.09368464 -0.2994192
-0.14246047 -0.0994321 0.18828438 -0.2416559 -0.31503546 -0.008898623 -0.38574308 -0.32081193
0.15221539 0.19371462 -0.22635151 -0.2506706 -0.13605171 0.52025753 -0.10123357 0.4340539
0.29952332 0.024828065 -0.29894346 -0.20882756 0.5079965 -0.061504107 -0.13439633 0.37056372
0.114522755 -0.10199608 0.27651483 -0.29754677 0.48433056 0.57469946 0.35041654 -0.1414703
0.23787163 -0.26071763 0.042538587 0.13190138 -0.051662188 0.22790478 0.38218942 0.09608794
-0.088844664 -0.30728683 -0.1598385 -0.13117456 0.120522246 -0.30215162 -0.396514 -0.37993386
-0.14362936 0.039465044 0.33302695 0.013197918 0.05432571 -0.36677766 0.24380234 -0.21381962
-0.19403699 -0.21038686 0.001755366 0.21183296 0.1736426 -0.4291758 -0.09159732 0.05845453
-0.2784748 -0.20214732 0.0012600248 -0.24426796 0.2328741 0.07161263 0.3379558 0.23660998
-0.3188823 -0.107178465 0.04633573 -0.16826822 -0.0770536 -0.19519046 -0.17760919 0.004676364
0.2876744 -0.2543972 0.3938489 -0.1209322 -0.054057833 -0.3747198 -0.20712137 -0.29049906
-0.12501866 -0.07998794 -0.33153164 0.12885123 -0.04729133 -0.38401243 -0.42475596 -0.37899685
-0.20848031 0.21246688 0.28764778 0.05220385 -0.10861488 0.42544255 0.0033023367 -0.17086607
0.48675656 -0.04112954 -0.15931982 0.19994944 -0.03158052 0.046788007 -0.08289504 -0.08270134
0.01723555 0.247767 -0.529384 0.12509981 -0.08652757 0.17376128 0.17948495 0.24686065
0.36152518 0.21868652 -0.3482115 -0.060065247 0.22604837 0.064830735 0.27198103 0.16645841
0.041440304 -0.023482284 -0.09055794 0.34095758 0.10180229 -0.45957682 0.050275486 -0.29388812
0.14493506 0.007266287 -0.2251336 -0.27884415 0.09341821 -0.03965043 -0.19688158 0.040043365
0.10376411 -0.22801399 -0.08768512 0.45816264 0.08732071 0.22953367 0.17183478 0.26914278
-0.16333622 0.13199495 -0.44499263 0.13156898 0.08976475 0.50594735 -0.24012509 -0.21036242
0.13333748 -0.13682693 0.27073458 -0.17187184 -0.28314978 0.0212241 0.06993244 0.17999771

model.encoder.model.4.bias f4 [32]
00000000: 5835 0ebd 0422 1fbd fff5 3bbe dbd1 3b3e
00000010: b3da 25be 5840 c0bd 3fc7 9dbd 422f 713e
00000020: dbec c33c 87d3 3dbe 1556 123e d168 31be
00000030: eeae 3dbe 1564 54bd 40a2 093e 9905 79be
00000040: 37da b3bd 803c ee3d 3a85 bfbb f1f5 1fbe
00000050: e028 aa3d 2637 873d fad1 cc3d 50a8 e1bc
00000060: c217 273d c20e 133e cd97 433e cd01 29be
00000070: 39fe 853e f416 3b3e e225 813e 8f60 babd
-0.03471884 -0.0388508 -0.18355559 0.18341772 -0.16196708 -0.093872726 -0.07704019 0.23553184
0.023916652 -0.18537723 0.1429065 -0.1732514 -0.18523762 -0.05185326 0.134408 -0.24318542
-0.087818556 0.11632633 -0.0058447393 -0.15621163 0.083085775 0.066023156 0.10000987 -0.027546078
0.04079414 0.14361098 0.19100876 -0.16504593 0.2617052 0.18270475 0.25224215 -0.09100448

model.gnn.0.att f4 [1, 1, 32]
00000000: 5daf 653e 69ef 493e 8f2e a23e aa71 2b3e
00000010: 4f85 8a3e e27c 943e f050 8dbe a2bb 653e
00000020: 311d febe 13b3 86be 0fa3 57be c592 35be
00000030: e790 813e e467 8dbe eab5 ecba b11e 92bd
00000040: 68e2 4d3f 258e 6cbe ca43 fb3e 5771 b33e
00000050: aa60 16bf d049 273e cb18 8e3d a30b 74be
00000060: 528d 023f 419e 543e bd28 c13d 2e65 333e
00000070: a188 dabe 0068 763e 8c47 2dbe 9327 20be
0.22430177 0.19720234 0.31676146 0.16742578 0.2705483 0.29001528 -0.27600813 0.22434857
-0.49631646 -0.26308498 -0.21058296 -0.1773177 0.25305864 -0.27618325 -0.0018059586 -0.0713476
0.80423594 -0.23101099 0.49075156 0.3504741 -0.5874125 0.16336751 0.06938323 -0.23832564
0.5099689 0.20763494 0.09431598 0.17519066 -0.42682365 0.2406311 -0.16921824 -0.15640096

model.gnn.0.bias f4 [32]
00000000: 9288 acba 7bc8 433d 2661 7e3d 5103 db3d
00000010: e006 363d 08fb aa3c f519 eebd cd49 2b3d
00000020: d683 ddbd 513a b5bd b092 82bc cc49 f53c
00000030: 6015 84ba df8e bdbd 847b bbbd b449 2f3d
00000040: 2b33 d93c bc0e 2dbd 3f8b 983c 23c4 ec3c
00000050: 0b75 70bd 0455 e83d 2fb8 63bb 7a3a 1d3d
00000060: 395a 3f3d ffcb 223d 829d 01be cf31 dfbc
00000070: 248d 64bd e4d1 28bc 7ee6 05be 63fb 15be
-0.001316326 0.047798615 0.062104367 0.10693992 0.04444015 0.020871654 -0.11626045 0.04181843
-0.10816161 -0.088490136 -0.015939087 0.029942416 -0.0010077171 -0.09255766 -0.09154418 0.0427949
0.026513657 -0.04225038 0.018621085 0.028902119 -0.05870537 0.113443404 -0.0034747233 0.038385846
0.046716902 0.039745327 -0.1265774 -0.02724543 -0.055798665 -0.010303948 -0.13076207 -0.14646678

model.gnn.0.lin_l.weight f4 [32, 32]
00000000: 5870 26be d555 b1bd 8a2d 6dbe 268a e3bd
00000010: 58f9 1e3e 480d 813e 6373 27be 6f0e 7fbe
00000020: 865c 3b3e 6bd2 a1be 86f2 75be 6120 173e
00000030: 0a1e a3bd fecb d33d 39c1 febd 94c8 25be
00000040: 4f1d 45be 7780 433e 0469 7fbe 0fbe a8be
00000050: e039 64be d2bc 1e3e f53b bc3e e6cd 663c
00000060: 7150 5fbe d254 9e3e 600c 82be 109f 713d
00000070: 7a55 97be 5943 de3d d7cd 88be b33d 573e
00000080: b6f0 1abd 9dd9 f1bd f6ef b6be 7eb9 1c3d
00000090: e1be 5bbe 3c7c bbbe 15cc 9d3e 3828 853e
000000a0: 777f 883e 1321 e43d 1063 483e 0f9a a7bd
000000b0: 0d31 a4be 5152 cc3e 034c 88be 4bcf a0bd
000000c0: eb7a 643e eade 213e e9f1 3c3e 43d2 e3bd
000000d0: fcd5 fb3d e0fd 9f3e bf99 623e 1180 f9bd
000000e0: 5aed 04bd 7f23 a23c 76d9 b43d f11a c83d
000000f0: 7ee8 b0be 156a ba3d bbc8 68bb 5de0 323e
00000100: 4bef c83e dde0 903e 42c7 aabe 8b57 1abc
00000110: 184e 253e cd15 1cbe 87d7 603e dae5 303e
00000120: 22a2 1c3e 3d8b 41be ddee 1f3d cec4 713e
00000130: 561d abbe 6ad7 61bd c539 943e 7fe7 0f3d
00000140: f718 04be 8563 583e b28b a53d bac7 17be
00000150: 09ee 81be aeee 363d fff1 313d 44ab 1abe
00000160: b593 443d 5bd2 54be ca4b 25be 7367 5dbe
00000170: a960 bc3d 20f4 003e 8019 88be 92b1 b7bd
00000180: c57d 0c3d b5b5 91be 69e5 7a3e 7e9c 223d
00000190: f584 3abe f986 6d3e 96e5 603e 0b90 763e
000001a0: bd81 f63d f8da 97be cf7c 423e 64ae 7ebe
000001b0: d418 b5bc 1817 27bd 497e b2bd 33fe 993c
000001c0: 8eed 03bb ed10 2e3e c86c 8b3e d149 1c3e
000001d0: 055e 8abe 0da7 79bd dacb 39be ece7 173e
000001e0: cbe2 d5bd 27b9 1fbe ed5b 97be c581 813e
000001f0: dcff 993e e756 693c 3583 4a3e 405b 353e
00000200: b35c 493e 441f c83e 6e0e 6cbe a17c a93e
00000210: d910 71be 6b37 eabd e249 a33d 7d7c 903e
00000220: 0984 2bbc ef78 dd3c c8b4 75bc 16bb 353e
00000230: aa2e 983d 82e1 b33d 7a4a 6c3e 29f6 723d
00000240: 8f0d be3e 15f6 703d d866 23bc 799a 7f3d
00000250: 0423 223e d8de 723e 5922 693d d9ae 4cbe
00000260: b548 813e cbac 25be e058 343e d3a7 e3bd
00000270: 80fd 1ebe 399f b4be cedf 40bd f1b7 353d
00000280: 5c36 9d3d a229 543d 7c62 abbd 959b 2cbe
00000290: f7a6 333e 8ae5 b3be 9969 ab3e 1d04 abbd
000002a0: c478 853e f226 8a3e 08fe 6b3e 57da a1be
000002b0: 9135 403e 5425 b33e 0411 613e a74b c23e
000002c0: e4ae 503e aa22 37be 781a 723e 56c9 77be
000002d0: 6ee8 003d 6912 a23c bba8 be3e a712 9cbe
000002e0: 89c2 b4be 9c31 a53e c35e a33d faa4 7fbc
000002f0: 1374 2ebe a458 993d cf3e 6fbc aaf9 6e3d
00000300: cb32 2b3e f03b b8bd 7eae a13e 2544 43be
00000310: ec44 963d e9bf 08be d7a9 923e acd6 233d
00000320: e12b 0fbe 993d 8fbe 77b4 aabd cf6f 853e
00000330: c518 8d3e 232a cfbd 5622 0bbe 31f1 1d3e
00000340: b230 85be 073e 213e ab6e 063e 4ca0 24be
00000350: d1b2 8d3d c334 37be 04a4 5ebe 8e29 ae3e
00000360: 6086 8f3b c7b8 98be a0a2 a4be 4a77 c3bd
00000370: 5399 c83d b85f 36be 6a01 4ebe ded3 89be
00000380: 7d71 be3e c7f4 6d3d 37fa 99be 7c61 a83e
00000390: e856 4abe 22ab 55be d703 7cbe 96d2 1ebe
000003a0: 0838 bf3e 39bb ce3e d85c 013e f79c 6e3e
000003b0: 5680 ef3d 8cd7 1c3e f6cd b03e 97ff 593e
000003c0: 84de 603e 5113 b53d 4d5a 843e d3af 5fbe
000003d0: 2717 553d 6be4 f5bd d3ed a33e 3e3f 3bbe
000003e0: d08d 90bc 20a7 bc3e 6fdf 833e 95e6 76be
000003f0: ac1f 143e 28ea 35be 3677 b7bc 37e7 9ebd
-0.16253793 -0.08658949 -0.23161903 -0.11110334 0.15524805 0.25205445 -0.1635261 -0.2490785
0.18297014 -0.3160585 -0.24018297 0.14758445 -0.07964714 0.10341643 -0.12439198 -0.16189796
-0.19249462 0.19091974 -0.24942404 -0.32957503 -0.22287703 0.15501717 0.36764494 0.014087176
-0.2180803 0.30924088 -0.25400066 0.058989584 -0.295574 0.10852689 -0.26719543 0.2101963
-0.037827216 -0.118090846 -0.3572995 0.038262837 -0.21459533 -0.3661822 0.30819765 0.26007247
0.26659748 0.11139121 0.1956904 -0.08183681 -0.32068673 0.39906552 -0.26620492 -0.07852038
0.22312514 0.15807691 0.18451656 -0.111240886 0.12296674 0.3124838 0.22128962 -0.1218263
-0.03245292 0.019792316 0.0883054 0.09770764 -0.34552377 0.09102265 -0.0035520035 0.174684
0.39245066 0.28296557 -0.33355147 -0.009420286 0.16143072 -0.15242691 0.21957217 0.17275181
0.15296224 -0.18900771 0.039046157 0.23610231 -0.3342082 -0.055137075 0.28950325 0.03513288
-0.12900148 0.21131714 0.080832854 -0.14822283 -0.2537692 0.044661216 0.043443676 -0.15104395
0.047992427 -0.20783369 -0.16142192 -0.21621494 0.09198124 0.12593126 -0.26581955 -0.08969416
0.03429963 -0.28458944 0.24501576 0.039700024 -0.18214782 0.23196019 0.2196258 0.24078386
0.12036464 -0.29659247 0.18992923 -0.24871212 -0.022106566 -0.04079351 -0.08715493 0.01879797
-0.0020130607 0.16998644 0.2723143 0.15262534 -0.27024856 -0.060950328 -0.1814417 0.14834565
-0.10443648 -0.15597974 -0.2956232 0.2529432 0.30078018 0.014241911 0.19776614 0.1771059
0.19664268 0.39086354 -0.2305238 0.33102897 -0.23541583 -0.114363514 0.079730764 0.28219977
-0.010468491 0.027035205 -0.014996715 0.17747149 0.074307755 0.087832466 0.23075286 0.059316788
0.3711972 0.058828432 -0.00997325 0.062403176 0.1583367 0.2371782 0.056917522 -0.19988574
0.25250784 -0.16179197 0.17612028 -0.11115994 -0.1552639 -0.35277727 -0.047088437 0.044364873
0.07676384 0.051797517 -0.08368394 -0.16856225 0.17544161 -0.35136062 0.33479002 -0.08350394
0.260687 0.26982838 0.23046124 -0.31611893 0.18770434 0.34989417 0.21979147 0.37948343
0.20379215 -0.17884317 0.2364291 -0.24197897 0.031471662 0.01978417 0.37238106 -0.3048298
-0.3530467 0.3226441 0.07977059 -0.015603298 -0.17036466 0.0748761 -0.014602377 0.058343567
0.16718595 -0.08995807 0.3157844 -0.19068964 0.073373646 -0.13354458 0.28645203 0.03999965
-0.13981582 -0.27976683 -0.08335202 0.26061866 0.2755796 -0.10115459 -0.13587317 0.15424038
-0.26013714 0.15746318 0.13128154 -0.16076773 0.06918872 -0.17891221 -0.21742254 0.3401608
0.0043800324 -0.29828474 -0.32155323 -0.09544237 0.09794869 -0.17809951 -0.20117727 -0.26919454
0.3719596 0.058094766 -0.3007371 0.32886875 -0.19759715 -0.20866063 -0.2461084 -0.1551002
0.37347436 0.40377215 0.12633073 0.23302065 0.116944 0.153166 0.34532136 0.21288906
0.21959883 0.08841575 0.25850144 -0.21844415 0.052024033 -0.12006458 0.32017383 -0.18285844
-0.017645746 0.36846256 0.25756404 -0.24111398 0.14465207 -0.17765105 -0.022395711 -0.077589445

model.gnn.0.lin_l.bias f4 [32]
00000000: cd59 89bc a7b0 0cbe dd8a 2c3d 6b7a 3cbd
00000010: 40d6 e73d 2320 023e 35ba 43be 484e 0ebe
00000020: 81ab 1d3e ce17 f5bd fb50 05be 5925 213e
00000030: 6c7e 023e f811 8d3d 8626 27be 3de2 a63d
00000040: 0c4b 0cbe ef90 1bbe 1f8d e2bb b22f 8f3d
00000050: 8028 0f3e f364 943e 2e81 203e a9b1 8abc
00000060: 4ebf ca3c 4dc2 dd3d 0e32 dabd 8a5f 37be
00000070: 785c 22b7 e46e 93bd 04e5 ffbd 76f7 e6bd
-0.016766453 -0.13739263 0.042124618 -0.046015184 0.11320162 0.12707572 -0.19114001 -0.1389705
0.15397455 -0.11967431 -0.13019173 0.15736903 0.12743539 0.06888193 -0.1632329 0.0814862
-0.13700503 -0.15192007 -0.0069137956 0.06991519 0.13980293 0.28983268 0.15674278 -0.016930418
0.024749424 0.108280756 -0.106540784 -0.17907539 -9.677482e-06 -0.07198885 -0.12494853 -0.11277668

model.gnn.0.lin_r.weight f4 [32, 32]
00000000: ff17 953e 27a4 54be 7247 3abc 94dd f5bb
00000010: c966 17bd 5ed7 423c 5dc9 35be ba3b 203e
00000020: 91ab ab3c a354 abbd 239a 95be b31b 24be
00000030: 47fe 76be 85c8 e1bc 68a4 e13d 83ae d0bd
00000040: dbf8 193e 4ab6 c13d 0cfb a0be 2ffe 26be
00000050: 2d1a 97be bb06 16be 3e7c 4d3e b5da 1ebe
00000060: 640e 8ebd 49e7 3a3d 9733 633e c545 a43e
00000070: 27f3 c6bc cb97 c83c dafb 03bd 3ac2 b0be
00000080: 7427 9c3d ccca a33e ae4d 4dbe 88cb 75be
00000090: a99a 743e 736e 9dbe 7c6f 6c3e b14c 8d3e
000000a0: a2d3 0a3c 3700 0f3e 3bce 1a3d 655e 623e
000000b0: e9c6 c1bd ae0b 39be 7c90 bfbd ecc5 49be
000000c0: bfd1 20be b52d 84be 0a84 b1bc e578 833e
000000d0: 2f1c a8bd 49f3 df3e ac92 c53e c9f6 543d
000000e0: 2c89 90be 2d0f 97be 5d89 163e fcf8 823d
000000f0: 9675 6a3e 2104 97be 87d3 5fbe a569 0ebe
00000100: 6199 773d 5955 763d 476a 2abe 843c 1dbe
00000110: 66ce 41be 337f fdbd 4ba7 5ebd 2fc6 563e
00000120: 4f2e 793d 473e 2f3d c30e c93d 4edd 39be
00000130: 4874 1dbe 1f34 9cbe d942 313e 9b34 9a3e
00000140: 1b60 92be 94d7 f83d ef1f 4f3e 68dd 77bd
00000150: 6c0f 2cbe efa1 a93d cf41 04be 12d4 233e
00000160: 42ee 05be 2c3c 073e c8ea febc ebcc 7b3e
00000170: e214 e7bb 7461 0c3e 7e34 193e 1c86 bc3c
00000180: eece f73e 9d9f ad3e 31ea c63c cc05 eabd
00000190: b00b a1bc c8c2 b93d 4bef f1bd 4ce2 903d
000001a0: cafa 9a3e 6341 81be 1b17 473e 5d26 a4be
000001b0: 37d7 4cbe 1b95 3c3e b9ca 153e cb03 163d
000001c0: 8eb6 97be 148b a43e 3e1a 74bc 5fda 25be
000001d0: 35a8 2c3d b25c 943e 0173 443e 87e3 8bbd
000001e0: 2bf7 08bd ae5c 073e df20 6ebe ed5d 24be
000001f0: b9b4 09be 0c42 d63e eb14 483e 28f6 fd3e
00000200: 72f5 26be 9397 303e 79e6 233e c097 96bd
00000210: 76a1 efbc ee08 e83b 5a4c 223e ed73 78be
00000220: 411e a63d df10 b53d 4d19 593e 0737 aa3d
00000230: 58a4 cf3d 92e1 5f3e 6042 bbbe 0728 c23d
00000240: 55c1 913e 7c47 b3be 0cf3 8b3d 6e6a 7e3d
00000250: 42ee 3c3e eddb d33d 2f48 54bd 604e dfbd
00000260: 849a 573e b38d adbe 2760 7b3d 3165 06be
00000270: 197c afbe 1cfd 83be 490c cabe b9f7 c13d
00000280: 3dc7 963e 4336 4e3e 7a1b 0d3d def6 45be
00000290: 8cc5 9dbe d872 3dbe 00cc 9a3e 7441 033e
000002a0: 4e4f 08ba cce0 893e 787c 40be 3629 d43e
000002b0: 3587 86bd b5d6 853e 4158 f7bd 6f13 873e
000002c0: 3868 c4bd 9128 85be 9758 8bbd 4d25 513e
000002d0: e38e 40be 68b1 453e 659f 7d3e 864e 6fbe
000002e0: 67e5 8bbe c308 60be 60eb 1b3e 7e78 4bbe
000002f0: 9ecb cd3c e088 46bd 78dc 81be eee5 7a3e
00000300: 734e 84bb fa7c 44be d9d3 1f3e 4dbf 8d3e
00000310: 49af 3bbe 809a 6ebd 2fab 5fbe 8072 0d3e
00000320: 7f00 cb3d eff1 e33e ef14 423e b4c7 913e
00000330: 7227 9e3e a717 3a3e 6679 d5bd e4b8 d93d
00000340: c780 29be 2792 e9bd c6b5 e7bc 8017 19be
00000350: d7ee a3bd 30f1 f5bd 7caa 41be 8fe2 033e
00000360: 9dc1 2b3e d1a6 3f3e 487d 5a3e 3478 103d
00000370: cd99 9bbe aecc 5dbe 89d6 dcbc a28c bf3d
00000380: dfa6 243d 79ad f73c 486b 38be f08f f93d
00000390: 4aa5 6ebe 65fb 60be cedf 8b3e 6218 39be
000003a0: 2be8 163d 7b47 703e d0b7 863e aaaa 89be
000003b0: 8f31 4a3e 186d 163d d0c5 23be 0196 9d3e
000003c0: 5607 743e 53dc b4bb 3091 733d dd2f 0b3e
000003d0: 5057 76be 1ba6 1e3e 405c 32bd 4188 b93d
000003e0: 8ca3 4abe 7025 d9bd 9d6d 3c3e 1dd1 163e
000003f0: 7a9d 6fbe bcdd 9cbe 307c b63c 0fe3 82be
0.2911987 -0.20765744 -0.011369573 -0.007503221 -0.036963258 0.011892168 -0.17752595 0.15647784
0.020955833 -0.083657525 -0.2921916 -0.16026191 -0.24120437 -0.027561435 0.11017686 -0.101895355
0.15036337 0.09458597 -0.31441534 -0.16307901 -0.29512158 -0.14651005 0.20066926 -0.15513118
-0.069363385 0.045630727 0.22187649 0.3208448 -0.024285866 0.024486443 -0.032222606 -0.34523183
0.076247126 0.3199066 -0.20049164 -0.24003422 0.23887123 -0.3074833 0.23089403 0.27597573
0.008473309 0.13964926 0.037794333 0.22106321 -0.09461767 -0.18070862 -0.0935373 -0.19704407
-0.15705012 -0.25816122 -0.021669406 0.25678173 -0.082085006 0.437403 0.38588464 0.051993165
-0.28229654 -0.29503766 0.14700837 0.06395146 0.22896418 -0.29495338 -0.21858035 -0.13907488
0.060449008 0.060139988 -0.16642104 -0.15355116 -0.18926391 -0.12377777 -0.05435876 0.20974039
0.06083518 0.042784 0.09817269 -0.18150827 -0.15376389 -0.30508515 0.17310657 0.3011826
-0.28588948 0.12150493 0.20227025 -0.060513884 -0.16802758 0.082828395 -0.12915729 0.15998867
-0.1307917 0.13206547 -0.031117812 0.24589889 -0.00705205 0.1370905 0.1496143 0.023013167
0.48400062 0.33910838 0.024281593 -0.11426887 -0.019658893 0.09070355 -0.1181322 0.07074413
0.30269462 -0.252452 0.19442408 -0.3206052 -0.20003973 0.18416254 0.14628114 0.03662471
-0.29631466 0.32137358 -0.014898835 -0.16196583 0.042152602 0.2897697 0.19184496 -0.06830507
-0.033438843 0.13218948 -0.23254727 -0.16051455 -0.13447846 0.41847265 0.1953923 0.49601865
-0.16304567 0.17245321 0.16005887 -0.07353163 -0.029251795 0.0070811426 0.15849438 -0.24262972
0.08111239 0.088411085 0.21201058 0.08311277 0.10138768 0.21863392 -0.36574078 0.09480291
0.28467813 -0.35015476 0.06833467 0.062113218 0.18450263 0.10344682 -0.051826652 -0.10903621
0.21055037 -0.3389717 0.061370995 -0.13124539 -0.34274366 -0.25779045 -0.39462498 0.094710775
0.29448882 0.20137887 0.03445003 -0.19332454 -0.3081478 -0.1850084 0.30233765 0.12817937
-0.00051998056 0.2692932 -0.18797481 0.4143769 -0.065687574 0.2614037 -0.1207738 0.26382014
-0.09590191 -0.26007512 -0.068040065 0.20424385 -0.18804507 0.19305956 0.24767835 -0.23369798
-0.27323458 -0.21878342 0.15226507 -0.19870183 0.025121506 -0.048470378 -0.25363517 0.24501774
-0.004037672 -0.191883 0.15608157 0.27685013 -0.18328585 -0.05825281 -0.21842645 0.1381321
0.09912204 0.44520518 0.18953298 0.28472674 0.3088947 0.18173085 -0.104235455 0.10630968
-0.16553031 -0.114048295 -0.028284919 -0.14950371 -0.080045395 -0.120088935 -0.18912691 0.12879394
0.16773076 0.18715979 0.21336854 0.035270885 -0.30390778 -0.2166011 -0.026957767 0.093529955
0.040198203 0.030234085 -0.18009675 0.12185657 -0.2330524 -0.219709 0.27319187 -0.18075708
0.036842506 0.23464768 0.26312113 -0.2688802 0.19745468 0.036725134 -0.15993428 0.30778506
0.23830923 -0.0055194288 0.059464633 0.13592477 -0.24056745 0.15493052 -0.043545008 0.090591915
-0.1978895 -0.10602844 0.18401189 0.14728208 -0.23399916 -0.3063792 0.022276014 -0.25563857

model.gnn.0.lin_r.bias f4 [32]
00000000: e27a 2e3e 0255 1c3e d3dd 7c3d 6f63 5a3e
00000010: b735 a0be a20e a8bd 253f 10be c1aa f4bd
00000020: 5705 873e 03c9 cbbd d4b0 083d 0807 d9bd
00000030: 3779 3e3e cac9 adbc 153a 5abe 3bb4 f3bc
00000040: 035a ac3d 4ac7 37bd 60dd 82be 2edb 973d
00000050: 1ec2 a8bd af71 b4bd 232b 0cbe d5d8 8f3e
00000060: 5756 973d a38f 803d 202b 1abd ea23 9e3e
00000070: 2477 6cbe ae0b 32bb 4787 35be 4f86 283e
0.17039064 0.15266803 0.061734986 0.21326993 -0.3129098 -0.08205916 -0.14086588 -0.11946631
0.2637126 -0.09950449 0.03337176 -0.10597044 0.18600927 -0.021214385 -0.21311219 -0.029749027
0.08415606 -0.04486779 -0.2555952 0.07414852 -0.0824015 -0.08810746 -0.1368833 0.28095117
0.07389515 0.062773965 -0.037638783 0.30886775 -0.23092324 -0.0027167606 -0.17727385 0.16457485

model.gnn.1.att f4 [1, 1, 32]
00000000: 2685 533e 5381 a23e cda8 db3d 2654 e2be
00000010: 7885 c8bd ca24 6b3e 83f9 21be f06c 953e
00000020: 2fb5 7d3e 8b89 82be 5d84 92be 9d1c dc3d
00000030: 4f4f 82be c5fe c2bd 306b c5be be9b bbbe
00000040: fae0 1bbe bcd7 6ebe 858e 343e c773 983c
00000050: 1383 553e 7453 8fbe 09e4 07bf 1f51 edbe
00000060: b551 033e 9e2c a73e 4445 56bd 13bb 663e
00000070: 2a4d 44bd 2b85 a4be 1fe8 89be 0cb5 b7be
0.20656261 0.31739292 0.107255556 -0.44204825 -0.09791082 0.22963253 -0.15817837 0.29184675
0.24776147 -0.25495562 -0.2861661 0.10747645 -0.25451133 -0.0952125 -0.3855834 -0.3664226
-0.1522254 -0.23324484 0.17632492 0.018609894 0.20850782 -0.27993357 -0.5308233 -0.46350953
0.12824138 0.32651228 -0.05231215 0.225323 -0.047925152 -0.3213285 -0.26934907 -0.35880315

model.gnn.1.bias f4 [32]
00000000: 94a9 0e3e 951f 4a3d 3fd4 f73d 2137 f8bd
00000010: eda3 9f3c 5c12 033e f31c a7bb 2def 43be
00000020: fef8 cd3d 87c4 373d bf8c 51bd 5396 ea3d
00000030: b15e 853d 4ff9 dc3b 7169 fa3d 9d4a 833d
00000040: 08e3 f8bd 4dde dcbd 810c e83d aa1f ac3b
00000050: 1643 d4bd 69cb 15be e804 a03c 8c06 343d
00000060: 0317 133e 4fe0 253d 8969 1c3e 0a91 a13d
00000070: bff7 843d bbcc b0bd 9c46 71be 17e3 0ebd
0.13931876 0.049346525 0.121010296 -0.1211989 0.019487346 0.12799972 -0.0050998866 -0.19134207
0.10057257 0.044865157 -0.051159617 0.11454453 0.065122016 0.006743587 0.122271426 0.06410716
-0.12152678 -0.10784588 0.1133051 0.005252798 -0.10364358 -0.14628376 0.01953359 0.043951556
0.14364247 0.04049712 0.15274633 0.07888992 0.06492566 -0.08632799 -0.23562092 -0.03488454
