scripts_training/model.ckpt (torch, 223631 bytes, 104 tensors)

model.fake_node f4 [1, 32]
0.9844649 0.43852708 -0.7231226 1.1505274 0.91739017 0.16926709 2.46341 0.84991926
-0.41977474 1.0424802 1.4225153 0.15639645 -0.4539377 -1.0276573 1.244618 0.26498932
0.20522454 0.8752135 1.4104044 1.3913616 1.7368634 0.3849377 0.7346006 -0.050116297
-0.34838432 1.134598 1.0917044 0.074217446 1.0567474 1.4098521 0.2950516 -1.6924093
00000000: e405 7c3f 9f86 e03e 901e 39bf 7b44 933f
00000010: 15da 6a3f 5a54 2d3e 82a8 1d40 4f94 593f
00000020: b7ec d6be fe6f 853f fb14 b63f 6426 203e
00000030: 866a e8be 468a 83bf a54f 9f3f aeac 873e
00000040: 6226 523e fe0d 603f 2288 b43f 2318 b23f
00000050: 8a51 de3f 8e16 c53e c90e 3c3f bf46 4dbd
00000060: 6e5f b2be 823a 913f f8bc 8b3f 51ff 973d
00000070: 8043 873f 0976 b43f 0111 973e dea0 d8bf

model.node_embedding f4 [100, 16]
-0.38055563 0.5212751 1.0843072 0.010154794 0.37309027 -2.0752292 -0.53389937 -0.026043562
0.42074826 -0.97240597 0.08308349 1.3353229 1.7222095 0.08460128 -2.0657454 -0.5211118
0.26528236 -0.5110853 -0.4787335 0.32965827 -0.26765603 -0.40655565 -0.54902405 -0.022729477
0.8149379 0.019339189 0.4297779 -0.6729633 -0.5591109 1.3325574 -1.3418832 0.62795097
-1.5396788 0.50811046 0.22032402 0.4372233 -1.2951559 -2.656812 2.578367 1.3313494
1.6205034 -1.6053787 -2.440328 -0.75575006 -0.44554505 1.6469173 0.96268183 0.21562064
-0.10219906 -1.3563876 -1.0596743 0.49947068 -1.5974493 -0.2688464 -0.8915125 -0.13141103
0.9426025 0.7343319 1.352956 -1.3713475 0.82074 -1.8892883 -1.6177104 1.9020885
1.8269969 1.4116772 1.1971631 0.26949698 -0.5426745 -1.1167654 -0.82459503 -1.1404489
1.8572174 0.2506496 -0.96784234 0.49519497 1.2138181 -0.2994147 -0.6214474 0.68422294
1.2072448 -1.1296123 0.40909043 -0.39806584 -0.4551736 -0.33289373 -0.16209376 -0.07901067
1.625774 -0.42966765 1.138309 0.24844505 0.04865723 -0.9141686 0.99900544 1.3350998
-0.61938566 0.4236534 0.83995056 -0.21631327 -0.08990008 -0.8519208 1.9699618 -2.3386438
-0.7640341 -1.0922518 0.73910546 0.6200984 0.28825986 -0.31538296 -0.77453583 1.7533764
0.72135013 1.7224841 -0.6929445 1.4323808 1.007009 -0.5782011 1.8955582 0.7864577
0.9851553 -2.0509794 -1.294385 0.9656365 1.2818071 -0.2809102 -0.41144854 2.134399
-0.07294674 -0.5304226 -0.89014953 -0.35608655 2.102027 -1.1892792 -1.3734403 -1.0654994
0.6608971 -0.12768534 0.6241396 -2.1360707 0.19317874 -1.1130662 -1.814775 -1.1730362
-1.5056165 0.43328527 -1.2126667 -0.29104528 -0.8970513 -0.060478732 -1.3329246 -0.5002561
-0.04302999 -2.3669407 2.8651125 1.2247945 0.70640564 1.997575 -2.486332 -0.05561894
0.40727255 1.3055137 0.029061632 -0.16705981 0.287552 -0.57884717 -1.6473978 0.25527355
0.4425567 -1.9753338 -0.3078689 -0.43357652 0.3274396 1.2899646 1.3424147 1.8000886
-1.3821747 0.3161047 0.4954597 0.41563112 0.011018075 0.98686004 0.14710361 -1.4658536
-0.4977353 1.0433584 0.66206723 0.21720475 -0.93567395 -0.95125496 1.2936392 0.67309356
0.19062638 0.2379481 1.8313011 -1.1795151 -1.0992877 -0.050707668 -1.659451 -1.5712146
-0.7499088 0.04835113 0.7194577 0.713346 0.98433936 1.2272829 0.0030138956 -0.4450728
0.55182093 0.29110405 0.19985305 0.7549597 -0.38675016 -0.09359697 1.4598596 0.05053244
-0.11287603 -2.7886124 -0.2974991 -0.23690902 -0.5674903 1.2914252 -1.1298811 -0.53488934
-0.7493334 0.764 -0.27717742 1.1822517 2.1568377 0.26390937 -0.093541026 1.4691117
-0.20565419 0.4442298 0.08982918 -1.7593135 -1.2863393 0.22659428 -0.8740632 0.63469356
0.14033753 -1.4096215 -0.21147324 1.6942302 -0.84406805 0.4207118 -0.36723825 -1.1873157
0.33613914 -0.4633721 -0.7002965 0.9184169 1.0918155 0.8733764 0.64052004 0.99879056
00000000: 30d8 c2be 4972 053f 94ca 8a3f 4b60 263c
00000010: b005 bf3e 8ed0 04c0 a1ad 08bf 4f59 d5bc
00000020: 516c d73e 99ef 78bf ad27 aa3d dceb aa3f
00000030: 5c71 dc3f 7043 ad3d 2c35 04c0 9567 05bf
00000040: 17d3 873e 7cd6 02bf 8f1c f5be f8c8 a83e
00000050: 360a 89be 1028 d0be d78c 0cbf 2b33 babc
00000060: c59f 503f 386d 9e3c d90b dc3e 5347 2cbf
00000070: e421 0fbf 3e91 aa3f d4c2 abbf 65c1 203f
00000080: 3214 c5bf 8713 023f 9f9c 613e bbdb df3e
00000090: abc7 a5bf 3509 2ac0 f703 2540 a869 aa3f
000000a0: a86c cf3f 0d7d cdbf 552e 1cc0 d678 41bf
000000b0: 7b1e e4be 30ce d23f 5172 763f a8cb 5c3e
000000c0: be4d d1bd 1c9e adbf 68a3 87bf 9fba ff3e
000000d0: 3879 ccbf 3ca6 89be 2a3a 64bf 9d90 06be
000000e0: 664e 713f 2dfd 3b3f aa2d ad3f 5188 afbf
000000f0: 041c 523f 33d4 f1bf 2211 cfbf a377 f33f
00000100: 09db e93f d7b1 b43f a43c 993f 82fb 893e
00000110: b7ec 0abf 2bf2 8ebf a918 53bf 3bfa 91bf
00000120: 4db9 ed3f 2555 803e 84c4 77bf 328a fd3e
00000130: 645e 9b3f e24c 99be 2d17 1fbf 3c29 2f3f
00000140: ff86 9a3f 2397 90bf 4d74 d13e 49cf cbbe
00000150: 840c e9be 0c71 aabe e8fb 25be 59d0 a1bd
00000160: 5d19 d03f 66fd dbbe 1cb4 913f 6168 7e3e
00000170: ce4c 473d f406 6abf d2be 7f3f 8de4 aa3f
00000180: 0f90 1ebf 19e9 d83e 0007 573f 3a81 5dbe
00000190: 881d b8bd 7b17 5abf b527 fc3f 57ac 15c0
000001a0: bd97 43bf e8ce 8bbf 0436 3d3f c5be 1e3f
000001b0: cc96 933e e079 a1be fb47 46bf a36e e03f
000001c0: 67aa 383f 5c7a dc3f d064 31bf 4158 b73f
000001d0: ace5 803f fd04 14bf a7a1 f23f 4b55 493f
000001e0: 2333 7c3f 3f43 03c0 68ae a5bf f433 773f
000001f0: 4112 a43f 76d3 8fbe 62a9 d2be fe99 0840
00000200: 1a65 95bd c7c9 07bf d7e0 63bf fa50 b6be
00000210: 9c87 0640 4d3a 98bf e4cc afbf 4962 88bf
00000220: 8d30 293f f2bf 02be 9dc7 1f3f 62b5 08c0
00000230: a6d0 453e f478 8ebf 8c4a e8bf 0d26 96bf
00000240: 0bb8 c0bf 91d7 dd3e aa38 9bbf e303 95be
00000250: 27a5 65bf 8cb8 77bd 469d aabf c910 00bf
00000260: 3740 30bd f57b 17c0 015e 3740 11c6 9c3f
00000270: 00d7 343f 8ab0 ff3f 1020 1fc0 b0d0 63bd
00000280: 0786 d03e 131b a73f a912 ee3c ba11 2bbe
00000290: 043a 933e 542f 14bf eedd d2bf 37b3 823e
000002a0: cb96 e23e bdd7 fcbf fea0 9dbe befd ddbe
000002b0: 2aa6 a73e 8f1d a53f 3fd4 ab3f 4e69 e63f
000002c0: 1aeb b0bf 7ad8 a13e e5ac fd3e 9acd d43e
000002d0: 2885 343c dca2 7c3f 54a2 163e 17a1 bbbf
000002e0: 29d7 febe c58c 853f 3d7d 293f ec6a 5e3e
000002f0: 5488 6fbf 7285 73bf f895 a53f dc4f 2c3f
00000300: 9033 433e aba8 733e 1368 ea3f 5afa 96bf
00000310: 76b5 8cbf d8b2 4fbd e468 d4bf 8f1d c9bf
00000320: 06fa 3fbf d60b 463d 612e 383f d89d 363f
00000330: aafd 7b3f 9b17 9d3f c784 453b 95e0 e3be
00000340: 2344 0d3f 970b 953e 47a6 4c3e 0a45 413f
00000350: 1e04 c6be c5af bfbd aedc ba3f 1bfb 4e3d
00000360: 8c2b e7bd a078 32c0 cd51 98be 4798 72be
00000370: 0b47 11bf 6c4d a53f f29f 90bf 82ee 08bf
00000380: 50d4 3fbf 8195 433f 33ea 8dbe 0654 973f
00000390: a109 0a40 211f 873e 7092 bfbd da0b bc3f
000003a0: 0397 52be 1772 e33e 5cf8 b73d 2f31 e1bf
000003b0: c4a6 a4bf 5508 683e 9bc2 5fbf 477b 223f
000003c0: a4b4 0f3e 7a6e b4bf 718c 58be 89dc d83f
000003d0: d814 58bf 8967 d73e a706 bcbe f6f9 97bf
000003e0: 6e1a ac3e 1c3f edbe a246 33bf 5f1d 6b3f
000003f0: 9cc0 8b3f 9995 5f3f 1ff9 233f bdb0 7f3f

model.encoder.model.0.weight f4 [32, 17]
0.119706996 0.19634356 0.14108466 -0.05224981 0.1486809 0.20202716 0.15274748 -0.13571545
-0.240911 -0.0170994 -0.08821107 0.25241217 0.1666233 -0.0616843 0.17862658 0.076678835
0.14968066 0.00032029266 -0.14257516 0.0684613 0.022674771 -0.03023493 0.16506535 0.24139062
-0.037076607 0.012804575 -0.03507656 0.22743177 -0.10131661 0.01147108 0.14775182 0.22940242
0.16542265 -0.012453182 -0.04596399 -0.054951627 0.05689704 -0.027918154 -0.22663952 -0.1571331
-0.11717674 -0.025662374 0.14872238 0.117658004 -0.18244357 -0.20241 -0.07177904 -0.028546914
0.04059485 0.23400706 -0.007785425 0.15632968 -0.05975478 0.200361 0.11776857 -0.16249277
0.05899412 0.16629924 0.03953725 0.011213199 -0.101497345 -0.039464913 -0.21086606 -0.08702508
0.07975677 -0.17741536 -0.15040144 0.07081234 0.1149469 0.1216052 0.085612915 -0.22322147
-0.19282393 0.013684805 -0.05929158 0.23632817 0.2428067 0.15792242 0.01615405 0.098110326
0.14213291 0.041607738 0.00034204547 -0.09751538 -0.21250449 -0.19054398 0.22318111 -0.13888599
-0.15897836 -0.07935045 -0.017486993 0.21379533 0.07508729 0.12580001 -0.024277266 -0.16960452
0.051460735 -0.08754322 -0.05649029 0.0032093425 -0.20611313 0.15985295 0.13539451 -0.21902452
0.04070625 0.13160054 0.11774514 0.18939328 -0.077912465 0.18871218 -0.15451868 0.16544513
-0.06752827 -0.059720963 -0.144786 0.17082462 -0.19883595 -0.19857948 -0.07546396 -0.24195746
0.18691494 -0.12131388 0.009994369 -0.084621325 -0.19158958 -0.1191516 -0.14089277 0.21768463
0.17853814 -0.11552231 0.23433255 -0.044355024 -0.12447971 -0.20994645 -0.17926039 -0.12550947
0.124018 0.00054672756 -0.14294662 -0.20452315 -0.16840091 0.0894322 0.017905908 0.16817638
-0.21953885 0.030055976 -0.12123232 0.15285555 0.013526922 0.02250741 -0.24140035 0.071328245
-0.14989595 0.14658622 -0.07507939 -0.07470973 -0.07590608 -0.057038933 0.1313434 -0.18995057
0.007108565 -0.045792244 -0.14163305 0.091595605 0.14976522 0.17463629 -0.050209787 0.201763
-0.014063824 0.19789645 0.21094441 -0.2191065 0.04337776 -0.059916914 -0.22202474 -0.04138747
0.08853742 -0.07608667 0.0422455 0.17515856 0.05790734 0.21612407 0.20495921 -0.12238197
0.14007072 -0.24022368 0.12145514 -0.19522226 0.16452293 -0.16054094 -0.027447617 -0.23783407
-0.18786842 0.20296903 -0.16306356 -0.083610125 -0.19096397 -0.14194763 0.23885153 -0.16955628
0.2526859 -0.077288866 -0.12825453 0.23872864 -0.01307267 0.09922277 0.046149164 -0.19406521
0.24949227 -0.03519028 -0.076402195 0.11083321 -0.0811738 0.10506299 0.022955803 0.11267767
0.08931659 -0.2342154 0.016052695 -0.069058776 0.18317924 0.21196248 -0.009523253 -0.14815721
-0.07647801 0.18473196 -0.23314795 0.19364001 -0.19088279 0.15143828 0.17651609 0.08982768
-0.17051867 -0.07154951 0.13165422 -0.20396285 -0.12554713 -0.1795232 0.08323989 0.14513937
0.035470814 -0.099198736 0.17304 0.2051649 0.13975218 0.21427013 0.017555097 -0.1537859
-0.091994464 0.10854705 -0.21467106 -0.1503423 0.06248986 0.20836432 0.23506895 0.114103526
00000000: f128 f53d 490e 493e 7f78 103e e603 56bd
00000010: ce3f 183e 35e0 4e3e d669 1c3e fef8 0abe
00000020: 60b1 76be 0a14 8cbc 01a8 b4bd 2b3c 813e
00000030: 4c9f 2a3e ada8 7cbd e3e9 363e cb09 9d3d
00000040: e345 193e f4ec a739 39ff 11be 7035 8c3d
00000050: 71c0 b93c 3eaf f7bc e406 293e 1a2f 773e
00000060: a4dd 17bd 48ca 513c 70ac 0fbd e0e3 683e
00000070: 157f cfbd 32f1 3b3c 414c 173e 78e8 6a3e
00000080: 8e64 293e 6e08 4cbc bd44 3cbd f514 61bd
00000090: df0c 693d 9db4 e4bc 3114 68be 80e7 20be
000000a0: 5cfa efbd e639 d2bc ae4a 183e aef6 f03d
000000b0: 7dd2 3abe 9144 4fbe e400 93bd 38db e9bc
000000c0: c946 263d 8c9f 6f3e e11c ffbb e314 203e
000000d0: 6ec1 74bd 6f2b 4d3e a630 f13d 8164 26be
000000e0: d2a3 713d 594a 2a3e d0f1 213d 91b7 373c
000000f0: d7dd cfbd f6a5 21bd 46ed 57be 353a b2bd
00000100: 8457 a33d 5fac 35be d602 1abe 0f06 913d
00000110: 4869 eb3d 260c f93d d355 af3d 2b94 64be
00000120: a373 45be 3b36 603c badb 72bd 0300 723e
00000130: 52a2 783e 6ab6 213e 8055 843c 11ee c83d
00000140: 4a8b 113e e06c 2a3d 9154 b339 25b6 c7bd
00000150: c79a 59be f61d 43be 9789 643e 2138 0ebe
00000160: 39cb 22be 7d82 a2bd e240 8fbc 2aed 5a3e
00000170: 5dc7 993d b8d1 003e 1ee1 c6bc cfac 2dbe
00000180: 7ec8 523d dc49 b3bd 5d62 67bd d553 523b
00000190: 520f 53be 7eb0 233e dca4 0a3e f747 60be
000001a0: 99bb 263d 4bc2 063e 5d24 f13d 50f0 413e
000001b0: 9290 9fbd c43d 413e 253a 1ebe 736a 293e
000001c0: 434c 8abd f89d 74bd c842 14be a6ec 2e3e
000001d0: a79b 4bbe 6b58 4bbe d98c 9abd b2c3 77be
000001e0: a166 3f3e 6973 f8bd 6cbf 233c f24d adbd
000001f0: 0f30 44be c105 f4bd 3246 10be b8e8 5e3e
00000200: b4d2 363e f696 ecbd dff4 6f3e 9dad 35bd
00000210: 38ef febd 34fc 56be 0990 37be 8e85 00be
00000220: 26fd fd3d 4452 0f3a 9960 12be 846e 51be
00000230: 4a71 2cbe 3b28 b73d 69af 923c 6e36 2c3e
00000240: cbce 60be f337 f63c a748 f8bd 2a86 1c3e
00000250: 06a0 5d3c 7661 b83c a731 77be 8b14 923d
00000260: 537e 19be b31a 163e 39c3 99bd 6a01 99bd
00000270: a674 9bbd a8a1 69bd e27e 063e 6782 42be
00000280: f7ee e83b a690 3bbd 4108 11be 7a96 bb3d
00000290: 0e5c 193e dbd3 323e c7a8 4dbd f69a 4e3e
000002a0: f46b 66bc 5ea5 4a3e d001 583e 745d 60be
000002b0: e1ac 313d 706b 75bd 745a 63be e885 29bd
000002c0: 1b53 b53d 54d3 9bbd 9e09 2d3d c45c 333e
000002d0: 3f30 6d3d a14f 5d3e d4e0 513e 66a3 fabd
000002e0: b36e 0f3e 32fd 75be 79bd f83d 58e8 47be
000002f0: b378 283e d864 24be d3d9 e0bc c68a 73be
00000300: 9460 40be 1dd7 4f3e 22fa 26be c93b abbd
00000310: 0f8c 43be b85a 11be 7f95 743e 29a0 2dbe
00000320: 0c60 813e a049 9ebd 2855 03be 4875 743e
00000330: c12e 56bc 4f35 cb3d e806 3d3d 08b9 46be
00000340: e77a 7f3e af23 10bd c178 9cbd 86fc e23d
00000350: 733e a6bd 442b d73d cf0d bc3c 8dc3 e63d
00000360: 9eeb b63d 29d6 6fbe f180 833c b06e 8dbd
00000370: 5793 3b3e b10c 593e 6b07 1cbc 86b6 17be
00000380: 81a0 9cbd 602a 3d3e 56be 6ebe 9149 463e
00000390: c776 43be a312 1b3e a2c0 343e 93f7 b73d
000003a0: 729c 2ebe 8d88 92bd 5dd0 063e a3db 50be
000003b0: 6d8f 00be eed4 37be ad79 aa3d 6a9f 143e
000003c0: d849 113d b528 cbbd 6631 313e bf16 523e
000003d0: 321b 0f3e a169 5b3e b5cf 8f3c 0d7a 1dbe
000003e0: 9867 bcbd ea4d de3d bbd2 5bbe 55f3 19be
000003f0: 5ef5 7f3d 755d 553e eab5 703e 1caf e93d

model.encoder.model.0.bias f4 [32]
-0.1077391 -0.18518597 -0.008146111 -0.14354855 0.16539165 -0.17368703 -0.040060833 -0.047468744
0.14062431 0.02967511 -0.010012791 0.11976784 0.157325 -0.08410853 -0.13674253 -0.13120218
0.26477307 0.021012532 -0.14551094 0.21803255 0.09891842 -0.2029466 0.17532712 -0.022500472
0.0874258 -0.18101822 -0.19739233 -0.22895119 -0.1138318 -0.06048731 -0.030903663 0.120757096
00000000: 51a6 dcbd 64a1 3dbe 4477 05bc 64fe 12be
00000010: 6e5c 293e 03db 31be d416 24bd 966e 42bd
00000020: d2ff 0f3e 3719 f33c b00c 24bc d748 f53d
00000030: ce19 213e 1841 acbd 3c06 0cbe dd59 06be
00000040: 5690 873e 7922 ac3c d200 15be ed43 5f3e
00000050: be95 ca3d 3cd1 4fbe f488 333e e952 b8bc
00000060: 4c0c b33d d75c 39be 3721 4abe 2e72 6abe
00000070: a620 e9bd 8bc1 77bd ae29 fdbc 7f4f f73d

model.encoder.model.2.weight f4 [32, 32]
-0.14862245 -0.008805099 0.16602977 -0.013919409 -0.04854161 -0.106849015 -0.026397131 -0.1792004
0.087253 0.004679352 -0.028285703 -0.11287378 0.006625237 -0.043799747 0.07164257 0.05679236
-0.051896095 0.10878358 0.0530562 -0.043255914 -0.018990308 -0.14456305 -0.075297326 0.07776261
0.102354124 0.09290172 -0.06848389 -0.0476599 -0.14559917 -0.048718702 -0.0028305687 0.13643034
0.07365656 -0.008967302 0.09544282 -0.112965554 -0.038408108 0.09914249 -0.011139853 -0.16533113
0.07607313 -0.078984775 0.038354646 0.12870847 -0.15604931 0.031463593 -0.06804709 -0.039629932
0.09555728 0.061309688 -0.08370633 0.06215755 0.052693255 -0.14075613 0.15298036 0.03364135
-0.17020084 0.14422348 -0.10156716 -0.04234189 -0.13723637 -0.13434164 -0.040202387 0.09710797
-0.13056624 0.15228198 -0.046791542 -0.08038258 -0.07149655 0.15734126 -0.103167795 0.044200014
-0.039555475 0.19493413 0.023616077 0.19166589 0.0556492 -0.11423609 0.13925588 -0.14744122
7.4914075e-05 0.09242667 0.09470348 0.030796003 -0.005227254 0.019470833 0.14515291 0.09992813
0.09120589 -0.14037216 -0.04580567 0.050222825 0.14088218 -0.11018879 0.10011784 0.12852785
0.17958744 -0.01838721 0.060037855 0.05989783 0.17757854 -0.1433181 0.15172154 -0.009828712
-0.116935745 0.12734826 0.14713058 0.09989042 0.07780617 -0.044521816 -0.10077376 0.065245174
-0.0077476706 -0.03199941 0.14832503 -0.11583759 -0.015970428 0.12916413 0.09236794 0.14602305
0.10630152 -0.107999615 -0.14409535 0.016800068 0.14226547 0.17481951 0.15265158 -0.05726273
0.15279374 -0.08340441 -0.03297064 0.039843887 -0.17491902 0.023063155 -0.18927397 0.0582999
0.03490605 -0.041076586 0.013783399 0.06928698 -0.037658613 0.08637617 -0.13005489 0.13196975
-0.07001375 -0.044574544 0.15828666 6.406914e-05 -0.14022285 0.08847791 0.034135707 -0.1452228
0.108627714 -0.051856197 0.029038137 0.010234052 0.062067818 -0.12779322 0.053996515 0.0098331
-0.17775232 0.10784114 -0.15889665 0.08343877 -0.17583516 0.045189027 -0.010672034 -0.08540264
-0.0663544 0.034384184 0.17012802 -0.10997847 -0.061423894 0.14383088 0.05271981 -0.15528089
0.14803544 0.034136865 0.035814438 0.05594395 0.09619359 -0.13054606 -0.031652063 0.121022396
0.14885834 0.10806792 0.09787945 0.117023386 0.004455413 0.048219744 -0.11772229 0.1194261
-0.019586194 -0.030199414 -0.019408833 -0.031553645 0.08678183 0.06493276 0.01149604 0.121210165
0.00563837 -0.096216604 0.039129898 -0.14808226 0.089968465 -0.0112595 -0.048722204 0.14926577
-0.038485363 -0.102094494 -0.051861595 -0.15736203 0.08233824 0.1581654 0.1393523 0.055408392
0.11323451 0.045464154 -0.053808168 -0.08186776 0.07771991 -0.068411596 -0.065813355 -0.008347147
0.13095284 0.17775276 -0.15475257 -0.09328283 0.12404501 0.09256452 0.14268638 0.10956034
-0.15343262 -0.0835229 0.0037173994 -0.0039157243 -0.11185553 -0.010143301 -0.16656289 0.09336979
0.17281233 -0.070989855 0.095910154 0.028999276 0.13889275 -0.15281025 0.054848783 -0.03636502
0.17444354 -0.06830721 0.0033321728 0.12904793 -0.044577405 -0.17699958 -0.16419211 0.06861625
00000000: 7c30 18be 4343 10bc b503 2a3e 3c0e 64bc
00000010: 91d3 46bd a8d3 dabd cc3e d8bc 4f80 37be
00000020: b3b1 b23d 4055 993b 6bb7 e7bc 5e2a e7bd
00000030: 8418 d93b 5d67 33bd 57b9 923d 1b9f 683d
00000040: 0091 54bd edc9 de3d 7551 593d 1d2d 31bd
00000050: 9091 9bbc 5608 14be 7c35 9abd 0142 9f3d
00000060: 0a9f d13d 4243 be3d 4841 8cbd 0737 43bd
00000070: f317 15be 438d 47bd 1081 39bb 65b4 0b3e
00000080: 40d9 963d 97eb 12bc 8677 c33d 7c5a e7bd
00000090: d251 1dbd 380b cb3d ee83 36bc 904c 29be
000000a0: 3bcc 9b3d c5c2 a1bd c319 1d3d 27cc 033e
000000b0: 64cb 1fbe f8df 003d 465c 8bbd ff52 22bd
000000c0: 89b3 c33d de1f 7b3d 396e abbd ea98 7e3d
000000d0: e2d4 573d 6022 10be e2a6 1c3e 83cb 093d
000000e0: 2149 2ebe 52af 133e 7102 d0bd b16e 2dbd
000000f0: b187 0cbe db90 09be 42ab 24bd 8be0 c63d
00000100: 28b3 05be cfef 1b3e 7da8 3fbd 9f9f a4bd
00000110: c96c 92bd 111e 213e a349 d3bd 130b 353d
00000120: ec04 22bd d09c 473e 8176 c13c 1044 443e
00000130: 6af0 633d 9cf4 e9bd 1899 0e3e d5fa 16be
00000140: 301b 9d38 324a bd3d e6f3 c13d e647 fc3c
00000150: 6249 abbb 4c81 9f3c f7a2 143e 1fa7 cc3d
00000160: 27ca ba3d b8bd 0fbe ba9e 3bbd 73b6 4d3d
00000170: 6b43 103e a9aa e1bd 950a cd3d ce9c 033e
00000180: c5e5 373e c6a0 96bc 41ea 753d 6d57 753d
00000190: 26d7 353e fbc1 12be e45c 1b3e 9b08 21bc
000001a0: 027c efbd 9567 023e 66a9 163e 5993 cc3d
000001b0: d758 9f3d 825c 36bd 7962 cebd 439f 853d
000001c0: 2ce0 fdbb d011 03bd 84e2 173e 423c edbd
000001d0: 6ad4 82bc 9a43 043e 672b bd3d 1187 153e
000001e0: 9cb4 d93d e72e ddbd bb8d 13be 4ca0 893c
000001f0: 0aae 113e e303 333e b250 1c3e 538c 6abd
00000200: f675 1c3e eecf aabd 390c 07bd 5833 233d
00000210: f91d 33be f1ee bc3c 09d1 41be e0cb 6e3d
00000220: a5f9 0e3d ec3f 28bd c4d3 613c 55e6 8d3d
00000230: eb3f 1abd fde5 b03d 1c2d 05be 1423 073e
00000240: 5e63 8fbd cc93 36bd e615 223e dc5c 8638
00000250: 9496 0fbe e833 b53d e2d1 0b3d 49b5 14be
00000260: 3578 de3d 2a67 54bd 63e1 ed3c baac 273c
00000270: d33a 7e3d 3adc 02be 732b 5d3d 031b 213c
00000280: b404 36be d1db dc3d ceb5 22be f2e1 aa3d
00000290: 220e 34be 2118 393d c1d9 2ebc 94e7 aebd
000002a0: d1e4 87bd 6ed6 0c3d 0a36 2e3e 643c e1bd
000002b0: 9f97 7bbd 6748 133e baf0 573d f401 1fbe
000002c0: 9a96 173e 19d3 0b3d 29b2 123d 7c25 653d
000002d0: 2501 c53d dead 05be 98a5 01bd 97da f73d
000002e0: 526e 183e b752 dd3d 0575 c83d f5a9 ef3d
000002f0: b7fe 913b 1182 453d 6218 f1bd ac95 f43d
00000300: 3a73 a0bc c364 f7bc 46ff 9ebc 653e 01bd
00000310: acba b13d 78fb 843d e359 3c3c 093d f83d
00000320: 13c2 b83b 360d c5bd ac46 203d e0a2 17be
00000330: 6341 b83d c479 38bc ef90 47bd 20d9 183e
00000340: d4a2 1dbd eb16 d1bd d36c 54bd 8323 21be
00000350: f4a0 a83d 1cf6 213e 5fb2 0e3e e9f3 623d
00000360: 7fe7 e73d 9f38 3a3d f465 5cbd 49aa a7bd
00000370: 9e2b 9f3d 611b 8cbd 27c9 86bd 79c2 08bc
00000380: 8018 063e d204 363e 7577 1ebe 120b bfbd
00000390: 4f0b fe3d 7892 bd3d 611c 123e 2c61 e03d
000003a0: 711d 1dbe 0e0e abbd 9d9f 733b 7a4f 80bb
000003b0: 8314 e5bd 1730 26bc 768f 2abe a938 bf3d
000003c0: b7f5 303e 2163 91bd 8b6c c43d e48f ed3c
000003d0: e739 0e3e 4a7a 1cbe 1ea9 603d 7df3 14bd
000003e0: 54a1 323e a7e4 8bbd 9560 5a3b 2425 043e
000003f0: cc96 36bd 613f 35be fa21 28be ad86 8c3d

model.encoder.model.2.bias f4 [32]
0.059305094 -0.057686362 0.12032529 0.00025189915 0.045981772 -0.09492986 0.13590747 -0.072401054
0.0444103 0.07102954 -0.11270659 -0.20469503 0.038422957 -0.13026865 0.04559693 0.026191948
0.1525293 0.119778134 0.15299168 0.18712576 -0.009430685 -0.001473523 -0.1637967 -0.011931307
0.010353053 -0.14803717 0.05201326 -0.03232038 0.0087599605 -0.06852226 0.15876704 -0.10983253
00000000: e6e9 723d 8948 6cbd 1b6d f63d 5511 8439
00000010: 6257 3c3d 966a c2bd 542b 0b3e 0147 94bd
00000020: 93e7 353d ef77 913d b6d2 e6bd 939b 51be
00000030: 6461 1d3d 2565 05be d9c3 3a3d 7f90 d63c
00000040: a430 1c3e 3d4e f53d daa9 1c3e e59d 3f3e
00000050: 2983 1abc 3a23 c1ba 52ba 27be 877b 43bc
00000060: da9f 293c 0e97 17be db0b 553d 6062 04bd
00000070: f085 0f3c 6655 8cbd d493 223e e1ef e0bd

model.encoder.model.4.weight f4 [32, 32]
-0.14005527 0.078099996 0.058966685 -0.09935486 0.07807115 -0.12462904 -0.15292382 -0.11229067
-0.17021903 0.0993007 -0.08297293 0.0764458 0.00041995052 0.062117964 0.101824164 -0.11098322
-0.09788355 0.10935406 -0.09547047 0.07471177 -0.10458033 0.10561386 0.061665345 -0.13941321
-0.1290724 0.030566052 0.079219624 0.08402345 0.1246828 -0.1412577 0.0029428117 0.094640605
-0.096732855 -0.048945464 0.051909506 0.11183944 0.13401869 0.13512437 0.10971134 -0.018825144
0.025969747 -0.010263486 -0.058734078 -0.14628255 0.092224084 0.1783351 0.032408483 0.17443235
-0.01722369 0.094455674 0.13526195 0.11950598 0.05796656 -0.14533238 0.11365864 0.14690086
0.10063364 -0.024220068 -0.14766765 0.1772228 0.07940072 0.11379525 0.19545959 -0.07653232
0.012291149 -0.12845892 -0.10997481 0.09443882 0.09920941 -0.06946217 -0.07003869 -0.09362661
0.14713761 0.103554994 0.14403445 -0.052889396 0.008263316 -0.015568274 -0.02566062 -0.019461837
-0.1269695 0.05438259 -0.052266262 -0.06349271 0.0005616564 -0.19167195 -0.02328628 0.008431565
0.056097668 -0.08029765 0.13065702 0.13266866 -0.035379555 -0.09702472 0.061668754 -0.09598945
0.15027136 -0.030474676 0.11128064 0.16560274 -0.0017428589 -0.036090307 -0.012211811 0.10745021
0.04250464 0.0077532693 0.1036632 -0.07475886 0.04134492 0.17491499 0.06503877 0.023590459
0.007278899 -0.028811466 -0.15293027 0.13440584 0.13779199 -0.1445898 0.01810619 -0.07843073
-0.14483568 0.054670203 0.14314952 -0.077968836 -0.10019215 0.074458346 -0.09670954 0.1856474
-0.050726406 -0.058685057 -0.14493752 -0.013205935 0.06853745 0.08518056 -0.004452073 -0.104928695
-0.030342454 -0.03528759 -0.07670592 0.08668849 -0.06636348 -0.018237492 0.112989835 0.038673036
-0.016785989 0.10647293 -0.056170262 -0.18468772 -0.07985726 -0.018494917 0.14344233 -0.047845144
-0.097914554 0.17170285 -0.1813597 0.06887344 0.1291327 -0.17092192 0.14887838 0.12783837
-0.046890996 0.028520703 0.033994053 -0.19014388 0.009900455 0.14040843 -0.16405718 -0.1119386
-0.18253036 -0.13845584 -0.10589438 0.12208766 0.0918796 -0.11723959 -0.17959796 -0.038576365
0.08034419 0.08144091 -0.1794238 -0.02362991 0.04610523 -0.118244715 -0.14112285 0.0066504865
0.063542224 0.09196021 -0.16994506 0.109925374 -0.16037653 0.06602248 -0.110639565 0.13495643
0.044974767 -0.10518601 0.062132925 0.064147934 -0.18825936 0.04096409 -0.07479644 -0.012871175
0.070985354 0.03403426 0.03272497 0.025552578 -0.0015319097 0.13230667 -0.13818666 -0.04575735
-0.007665212 -0.106470086 -0.14927578 0.054832812 -0.06278925 -0.15833585 0.13106164 -0.060025707
0.15804553 0.008698797 -0.13277921 -0.05175852 0.16304293 -0.15975745 -0.09885205 0.04988068
-0.08567044 0.054491635 0.07918722 -0.020268342 0.1804631 -0.10800296 0.07006778 0.012637263
0.12706575 0.15493856 0.029947007 -0.05623873 -0.1028001 0.09412624 -0.1394735 -0.05005265
0.014784667 -0.108971246 -0.1333669 0.041736454 0.15020882 0.15569568 0.1830628 -0.1253763
0.042927064 0.106069855 0.105314225 0.09612691 -0.14831325 0.047486775 0.12686434 0.0071594277
00000000: a66a 0fbe e4f2 9f3d 0d87 713d 907a cbbd
00000010: c4e3 9f3d 833d ffbd 1098 1cbe a7f8 e5bd
00000020: e64d 2ebe 2a5e cb3d b6ed a9bd 9e8f 9c3d
00000030: ce2c dc39 686f 7e3d 3089 d03d 2c4b e3bd
00000040: 2c77 c8bd 05f5 df3d 0686 c3bd 7c02 993d
00000050: 362e d6bd 144c d83d cd94 7c3d 56c2 0ebe
00000060: 8e2b 04be a865 fa3c e63d a23d 7d14 ac3d
00000070: b259 ff3d dca5 10be 30dc 403b efd2 c13d
00000080: e01b c6bd 0a7b 48bd 109f 543d 140c e53d
00000090: 323c 093e 0b5e 0a3e 57b0 e03d 3037 9abc
000000a0: 82be d43c 2e28 28bc 2593 70bd 18cb 15be
000000b0: fbdf bc3d 7a9d 363e c2be 043d 659e 323e
000000c0: b218 8dbc fa71 c13d 1c82 0a3e 8dbf f43d
000000d0: 586e 6d3d 03d2 14be dcc5 e83d 2e6d 163e
000000e0: 0319 ce3d 2a69 c6bc 3036 17be e579 353e
000000f0: d89c a23d 7c0d e93d 8f26 483e fabc 9cbd
00000100: d160 493c bc8a 03be 793a e1bd 2469 c13d
00000110: 4e2e cb3d 2f42 8ebd 7270 8fbd 4fbf bfbd
00000120: 3eab 163e a414 d43d c47d 133e 8da2 58bd
00000130: dc62 073c 1312 7fbc 3836 d2bc 6e6e 9fbc
00000140: 4b04 02be 47c0 5e3d 2615 56bd 7708 82bd
00000150: 1f3c 133a a745 44be dec2 bebc 8c24 0a3c
00000160: abc6 653d 1873 a4bd f4ca 053e 4bda 073e
00000170: 27ea 10bd e5b4 c6bd 6098 7c3d 1e96 c4bd
00000180: bce0 193e 07a6 f9bc 1be7 e33d c493 293e
00000190: a470 e4ba 6ed3 13bd 0c14 48bc db0e dc3d
000001a0: 5819 2e3d 230f fe3b 5f4d d43d 2c1b 99bd
000001b0: 4a59 293d ea1c 333e 0c33 853d c740 c13c
000001c0: d583 ee3b 0606 ecbc c199 1cbe afa1 093e
000001d0: 5819 0d3e 590f 14be 6f53 943c 4aa0 a0bd
000001e0: ce4f 14be dded 5f3d ca95 123e 20ae 9fbd
000001f0: 8b31 cdbd 9e7d 983d a70f c6bd 5a1a 3e3e
00000200: 7ec6 4fbd be5f 70bd 806a 14be b55d 58bc
00000210: 5d5d 8c3d 2573 ae3d b2e2 91bb dbe4 d6bd
00000220: bd90 f8bc b889 10bd fe17 9dbd bc89 b13d
00000230: 94e9 87bd cb66 95bc 3767 e73d 9e67 1e3d
00000240: c582 89bc 7b0e da3d ca12 66bd c71e 3dbe
00000250: 348c a3bd a782 97bc 8ce2 123e 45f9 43bd
00000260: 6d87 c8bd dfd2 2f3e 5bb6 39be 850d 8d3d
00000270: 5d3b 043e 2806 2fbe 9373 183e 10e8 023e
00000280: c610 40bd 40a4 e93c 593d 0b3d 14b5 42be
00000290: 8535 223c 3ac7 0f3e 9bfe 27be 1140 e5bd
000002a0: 3de9 3abe 5ec7 0dbe 27df d8bd 1809 fa3d
000002b0: 5f2b bc3d 4f1b f0bd 87e8 37be 4002 1ebd
000002c0: 7f8b a43d 7eca a63d dfba 37be 8393 c1bc
000002d0: d6d8 3c3d 492a f2bd 8282 10be 53ec d93b
000002e0: 6d22 823d a255 bc3d 1406 2ebe 8e20 e13d
000002f0: bf39 24be cb36 873d ff96 e2bd 0532 0a3e
00000300: 7637 383d c36b d7bd 187f 7e3d fe5f 833d
00000310: 10c7 40be f6c9 273d e02e 99bd 9fe1 52bc
00000320: c560 913d 8267 0b3d 9e0a 063d a453 d13c
00000330: 5cca c8ba 667b 073e ce80 0dbe 0f6c 3bbd
00000340: 752c fbbb fd0c dabd c0db 18be 5f98 603d
00000350: a697 80bd cb22 22be 0635 063e 84dd 75bd
00000360: b0d6 213e 6685 0e3c 46f7 07be be00 54bd
00000370: baf4 263e 7597 23be f272 cabd af4f 4c3d
00000380: fc73 afbd 9f32 5f3d e92c a23d cb09 a6bc
00000390: 52cb 383e a830 ddbd b27f 8f3d 860c 4f3c
000003a0: 861d 023e 37a8 1e3e 6d53 f53c 955a 66bd
000003b0: dc88 d2bd 42c5 c03d 24d2 0ebe 0204 4dbd
000003c0: 633b 723c 512c dfbd 5591 08be d8f3 2a3d
000003d0: 57d0 193e b06e 1f3e d174 3b3e a562 00be
000003e0: 4ad4 2f3d 273b d93d fcae d73d 2fde c43d
000003f0: 6edf 17be 7e81 423d bae8 013e a299 ea3b

model.encoder.model.4.bias f4 [32]
-0.12798305 0.12302936 0.08571319 -0.13088672 -0.112375714 -0.07781463 -0.013509268 0.14996089
-0.047109522 0.099847786 0.045251958 0.0213897 -0.016216887 0.08500803 0.101085745 0.09948012
-0.12938213 0.044898525 -0.009484995 -0.025776938 0.12905972 0.031729493 -0.044869434 0.06954502
-0.13280131 -0.031124847 0.02567775 0.08626995 -0.022274736 -0.011760402 -0.09369254 0.06364743
00000000: fd0d 03be d1f6 fb3d 668a af3d 2b07 06be
00000010: 3d25 e6bd 475d 9fbd fa55 5dbc 598f 193e
00000020: eaf5 40bd ff7c cc3d 1e5a 393d 7439 af3c
00000030: 47d9 84bc b118 ae3d 0b06 cf3d 3cbc cb3d
00000040: c07c 04be 84e7 373d f466 1bbc 282a d3bc
00000050: 3b28 043e c9f6 013d 03c9 37bd 9f6d 8e3d
00000060: 11fd 07be 89f9 febc 255a d23c 4dae b03d
00000070: 8279 b6bc b3ae 40bc e0e1 bfbd 9559 823d

model.encoder.model.5.weight f4 [32]
1.0308905 1.0363653 0.9797965 0.9771797 1.0246133 1.0343887 1.0246118 1.0372816
1.0280762 0.98837686 1.0283548 1.0377339 0.9899259 1.009561 1.0214806 1.0197971
1.0268993 1.0359052 0.9849047 0.998571 0.9787036 1.0563956 0.99288493 0.9958621
1.0053587 1.0119829 1.0473151 0.9860364 0.99310106 1.0292311 0.99010295 1.0023658
00000000: 38f4 833f 9ea7 843f f2d3 7a3f 7328 7a3f
00000010: 8726 833f d966 843f 7b26 833f a5c5 843f
00000020: 0098 833f 4406 7d3f 21a1 833f 77d4 843f
00000030: c96b 7d3f 4b39 813f e0bf 823f b688 823f
00000040: 7071 833f 8b98 843f b722 7c3f 59a2 7f3f
00000050: 528c 7a3f f937 873f b52d 7e3f d2f0 7e3f
00000060: 98af 803f a888 813f 6c0e 863f e26c 7c3f
00000070: df3b 7e3f d8bd 833f 6377 7d3f 864d 803f

model.encoder.model.5.bias f4 [32]
-0.030988917 0.03577669 -0.027850999 0.02469014 -0.02437932 -0.03043478 -0.02757471 0.03561501
-0.027421108 -0.0033187894 0.02481695 0.033009768 0.005473129 0.015192227 0.029153492 0.0186953
0.03425524 -0.032873485 -0.0206312 0.002012115 -0.034115087 -0.051277317 -0.002769799 0.0047991523
-0.006189189 -0.03418591 0.042365167 -0.010209417 -1.5048572e-05 -0.03379866 0.002947933 -0.028363435
00000000: 78dc fdbc 948a 123d c727 e4bc fa42 ca3c
00000010: 24b7 c7bc 5c52 f9bc 5ce4 e1bc 0be1 113d
00000020: 3ba2 e0bc 0c80 59bb eb4c cb3c 4035 073d
00000030: ef57 b33b d2e8 783c 4ed3 ee3c e326 993c
00000040: 394f 0c3d 59a6 06bd c302 a9bc b0dd 033b
00000050: 43bc 0bbd 2a08 52bd 8485 35bb 3542 9d3b
00000060: aece cabb 8606 0cbd 1987 2d3d 6645 27bc
00000070: 2079 7cb7 7770 0abd 1c32 413b 6f5a e8bc

model.gnn.0.att f4 [1, 1, 32]
-0.020649582 0.093871824 -0.38798672 -0.13809773 -0.13301668 0.03766169 0.18742844 -0.27383408
0.37337035 -0.10931544 0.22673765 0.06900266 -0.06716009 -0.20248426 -0.40930292 -0.43277588
0.36585084 0.34682587 0.40885824 -0.16162868 0.28574076 -0.2177948 -0.048811376 -0.03399146
-0.23949005 0.35377106 -0.4258659 0.13970947 -0.054786444 -0.23292129 -0.39275664 0.3186272
00000000: 5029 a9bc df3f c03d 32a6 c6be 7e69 0dbe
00000010: 8635 08be 2543 1a3d 3eed 3f3e fb33 8cbe
00000020: 662a bf3e c6e0 dfbd ea2d 683e 4451 8d3d
00000030: 3b8b 89bd 0958 4fbe 2790 d1be cd94 ddbe
00000040: cd50 bb3e 2993 b13e de55 d13e fd81 25be
00000050: 9d4c 923e 9a05 5fbe 70ee 47bd a13a 0bbd
00000060: e13c 75be 7b21 b53e 180b dabe 0010 0f3e
00000070: c067 60bd eb82 6ebe 6617 c9be 1b23 a33e

model.gnn.0.bias f4 [32]
0.017129958 -0.007989848 -0.011908895 -0.044095155 0.035883125 0.045341413 -0.013560168 -0.017122634
-0.033327807 0.03369228 0.025112653 0.03281265 0.018687064 0.030661352 -0.0016781184 -0.040342543
-0.0061537637 -0.021883242 -0.039809246 0.013149382 0.04289752 0.030983392 -0.040565897 -0.032643314
-0.021955213 0.043412797 0.010900364 0.0035980337 -0.027807282 -0.0028606593 0.035394132 0.027171865
00000000: 2054 8c3c dae7 02bc 871d 43bc 1f9d 34bd
00000010: 2ffa 123d ebb7 393d 782b 5ebc c444 8cbc
00000020: bd82 08bd eb00 0a3d 0db9 cd3c 8f66 063d
00000030: 9d15 993c 842d fb3c 4ff4 dbba 393e 25bd
00000040: 83a5 c9bb 7c44 b3bc 050f 23bd 8170 573c
00000050: 4fb5 2f3d e2d0 fd3c 6d28 26bd ffb4 05bd
00000060: 6bdb b3bc 9ed1 313d 7197 323c fdcc 6b3b
00000070: 19cc e3bc e679 3bbb 70f9 103d 8897 de3c

model.gnn.0.lin_l.weight f4 [32, 32]
-0.116303734 0.17344707 -0.18093655 -0.05444274 0.10112344 -0.2670205 0.11485446 0.23472227
0.11536583 -0.1510342 0.11625735 -0.06190481 -0.023269095 0.20921975 -0.019020287 0.059993807
0.1637323 -0.10537016 0.24455239 -0.19144055 -0.23547761 -0.19237988 0.09092738 -0.13145298
-0.03445361 0.1434714 0.16822511 0.11422866 0.16103996 -0.29451483 0.10727374 -0.23952036
-0.16258442 -0.05017194 0.17520835 0.016966786 0.004485723 0.037076205 -0.022879763 -0.27665693
0.04118632 -0.12210363 0.20270622 0.033810638 0.29951876 -0.020466067 -0.21592413 -0.26478994
0.24592146 -0.04635022 -0.0020214526 0.1307381 -0.27034396 0.12954706 -0.18998708 0.115205355
-0.23560724 0.111402646 -0.27352154 -0.04513208 -0.18891363 -0.19360119 0.023797838 -0.21232967
-0.0047506928 -0.25931904 0.21028538 -0.21292123 0.24665417 -0.11969173 -0.1015933 0.2232501
0.2756752 0.0826119 0.13297819 -0.039108574 -0.023597905 -0.0670302 0.15004618 -0.098222055
0.015992347 0.16543438 0.15555814 -0.09213494 -0.23220088 -0.20080656 -0.24227074 -0.25222915
0.07344791 -0.13710287 0.1923867 -0.07515481 -0.06723968 0.22273763 -0.1538247 -0.0033542602
-0.2485722 -0.32601085 0.003527686 0.11221585 -0.19681484 -0.0060076583 0.020451533 -0.19750638
0.3208638 0.15185662 -0.006086955 -0.17197847 0.04352925 0.065984234 -0.3070908 -0.18785773
-0.21483548 0.15916945 0.2426196 0.11977221 -0.2163622 -0.13139555 0.20304619 -0.079692096
-0.123845875 0.10528358 -0.020166093 0.22248581 0.29643703 0.23295939 -0.025325011 0.13066098
-0.28441882 0.22835106 -0.23950431 0.07461215 -0.100052916 -0.10937796 -0.03748906 -0.044418287
0.16639058 -0.12335429 0.09365612 0.30405864 -0.01040503 0.2394185 -0.044231772 -0.21314418
0.1339453 0.035911664 0.30362746 0.018583028 0.14529887 0.14106654 0.22248259 -0.16367207
-0.21199958 0.031729672 0.22677928 -0.18757123 0.21519144 0.09941201 -0.08155806 -0.24759828
-0.26990414 -0.06964322 0.16712168 -0.3177507 -0.35184133 -0.11749064 -0.042494904 0.14731832
-0.062091153 0.106272325 -0.093198255 0.017724155 0.13335955 0.18858507 0.017235111 0.31509423
0.010861621 -0.16254233 -0.21154585 0.13590609 -0.23625103 -0.13984825 -0.04372124 -0.15497011
-0.14124198 -0.22010961 0.33930933 -0.0010581498 -0.24413672 0.16184479 0.05848635 0.18084513
-0.19275837 -0.26612604 -0.12080375 -0.27529266 0.22026958 0.23480561 0.14015128 -0.2378867
0.27218586 0.26067576 -0.31118625 -0.19910322 0.048473574 -0.17278329 0.20081928 -0.13075131
-0.28715226 0.15636016 0.18784736 0.01559185 -0.10378015 0.24799515 -0.17275986 -0.21869442
0.30312863 0.15408947 -0.27838773 -0.26214764 -0.05079387 -0.06230506 -0.06002302 0.2536719
-0.005663777 -0.047844693 -0.24765494 -0.25885874 -0.25567728 -0.2817595 0.22958848 -0.2041073
-0.065975636 -0.18874554 -0.29010028 -0.31178463 0.0063141845 0.18731517 0.061510053 0.16851838
-0.20754609 0.06514487 0.084609196 -0.21236521 -0.16234112 0.2841287 0.056840196 0.22095317
-0.27909675 0.2203459 0.22066483 -0.13314234 -0.27160317 -0.16052182 -0.014376971 0.14118348
00000000: a730 eebd 1c9c 313e 6e47 39be 5aff 5ebd
00000010: ce19 cf3d e9b6 88be d138 eb3d 095b 703e
00000020: ec44 ec3d b6a8 1abe 5518 ee3d e68f 7dbd
00000030: d49e bebc b43d 563e 6fd0 9bbc 11bc 753d
00000040: 71a9 273e 4fcc d7bd f16b 7a3e fe08 44be
00000050: 0b21 71be 3bff 44be 2238 ba3d 9c9b 06be
00000060: 3b1f 0dbd 2bea 123e 3443 2c3e b7f0 e93d
00000070: a9e7 243e a6ca 96be 56b2 db3d d344 75be
00000080: 887c 26be 1881 4dbd d169 333e eefd 8a3c
00000090: f9fc 923b 38dd 173d 576e bbbc faa5 8dbe
000000a0: fdb2 283d 7811 fabd 3892 4f3e 067d 0a3d
000000b0: 865a 993e 74a8 a7bc 371b 5dbe 8c92 87be
000000c0: d6d2 7b3e bad9 3dbd 597a 04bb 35e0 053e
000000d0: 866a 8abe fca7 043e f98b 42be c9f0 eb3d
000000e0: 0643 71be 1227 e43d 040b 8cbe 6adc 38bd
000000f0: 9372 41be 643f 46be aff3 c23c f36c 59be
00000100: b3ab 9bbb 77c5 84be 0d55 573e 0608 5abe
00000110: e992 7c3e f020 f5bd 2610 d0bd ad9b 643e
00000120: 4d25 8d3e 6e30 a93d 6f2b 083e 5030 20bd
00000130: 6550 c1bc 2147 89bd b5a5 193e a528 c9bd
00000140: 6202 833c a167 293e a24a 1f3e 3eb1 bcbd
00000150: 11c6 6dbe 3ca0 4dbe d215 78be 2e24 81be
00000160: dc6b 963d b264 0cbe 0501 453e c4ea 99bd
00000170: f5b4 89bd 5515 643e 3984 1dbe 26d3 5bbb
00000180: b689 7ebe e5ea a6be c030 673b 6cd1 e53d
00000190: d489 49be e4db c4bb f989 a73c 1d3f 4abe
000001a0: 4348 a43e 4d80 1b3e 1475 c7bb 201b 30be
000001b0: ba4b 323d be22 873d 013b 9dbe c75d 40be
000001c0: d5fd 5bbe 51fd 223e 4671 783e 224b f53d
000001d0: 0d8e 5dbe 8e8c 06be 57eb 4f3e 9c35 a3bd
000001e0: e8a2 fdbd eb9e d73d 5d33 a5bc 52d3 633e
000001f0: 98c6 973e e88c 6e3e 6676 cfbc fecb 053e
00000200: 589f 91be dcd4 693e 9e40 75be 41ce 983d
00000210: 8be8 ccbd 8d01 e0bd 218e 19bd f3ef 35bd
00000220: 4b62 2a3e 2da1 fcbd c8ce bf3d 93ad 9b3e
00000230: dc79 2abc 202a 753e 602c 35bd 7842 5abe
00000240: f528 093e 1c18 133d 0f75 9b3e 6f3b 983c
00000250: 3ac9 143e bf73 103e 7ad2 633e a799 27be
00000260: 6b16 59be f9f6 013d d438 683e ac12 40be
00000270: 255b 5c3e 8698 cb3d ea07 a7bd 678a 7dbe
00000280: e030 8abe 1ba1 8ebd f221 2b3e 38b0 a2be
00000290: 8c24 b4be ef9e f0bd 230f 2ebd 9dda 163e
000002a0: 4b53 7ebd 4ea5 d93d bade bebd 3f32 913c
000002b0: 688f 083e 721c 413e a630 8d3c 0854 a13e
000002c0: f1f4 313c 7f71 26be 7a9f 58be f72a 0b3e
000002d0: caeb 71be 6134 0fbe 0b15 33bd 7cb0 1ebe
000002e0: bda1 10be 6a64 61be f4b9 ad3e 9eb1 8aba
000002f0: fafe 79be a4ba 253e 628f 6f3d 772f 393e
00000300: 7362 45be ac41 88be f567 f7bd 29f3 8cbe
00000310: 598e 613e e270 703e d183 0f3e 9298 73be
00000320: f25b 8b3e 4b77 853e ce53 9fbe b7e1 4bbe
00000330: 3a8c 463d 1aee 30be 92a3 4d3e ace3 05be
00000340: 9f05 93be e11c 203e 0f5b 403e f574 7f3c
00000350: b08a d4bd 71f2 7d3e f6e7 30be 6ef1 5fbe
00000360: ad33 9b3e a1c9 1d3e d688 8ebe 3738 86be
00000370: 3c0d 50bd 9733 7fbd b3da 75bd 49e1 813e
00000380: 3497 b9bb ccf8 43bd 4299 7dbe 2289 84be
00000390: 22e8 82be c842 90be 3e19 6b3e 8101 51be
000003a0: 3c1e 87bd 8346 41be 0688 94be 3ca2 9fbe
000003b0: 38e7 ce3b 8ccf 3f3e f7f1 7b3d 1590 2c3e
000003c0: f686 54be ac6a 853d 9647 ad3d 4476 59be
000003d0: c03c 26be 5179 913e 44d1 683d 8c41 623e
000003e0: c5e5 8ebe 5ba2 613e f6f5 613e 7756 08be
000003f0: 920f 8bbe d55f 24be 638d 6bbc 6792 103e

model.gnn.0.lin_l.bias f4 [32]
0.16995816 -0.18107498 -0.021078186 0.045032308 0.07088878 0.080521554 -0.022508023 -0.11913564
0.1326443 -0.046115022 0.09429613 0.17650436 -0.09369151 -0.064798295 -0.11734499 -0.16390991
0.047511585 0.13619946 0.059186205 0.18129839 0.2148556 0.09091637 -0.1510461 -0.020058647
0.06516616 0.14894822 0.14962548 0.16358316 -0.0321773 -0.048677225 0.16566333 -0.04725028
00000000: 8309 2e3e b86b 39be 29ac acbc cc73 383d
00000010: 232e 913d 7ce8 a43d bf62 b8bc 63fd f3bd
00000020: e8d3 073e 1be3 3cbd 541e c13d 8fbd 343e
00000030: 56e1 bfbd f8b4 84bd 9252 f0bd 00d8 27be
00000040: 829b 423d df77 0b3e 3c6d 723d 49a6 393e
00000050: 1b03 5c3e 5d32 ba3d d4ab 1abe 0852 a4bc
00000060: d675 853d e285 183e 6c37 193e 5882 273e
00000070: 58cc 03bd c561 47bd a6a3 293e 8289 41bd

model.gnn.0.lin_r.weight f4 [32, 32]
0.16674641 0.2520681 0.2806422 -0.01629101 -0.054617405 -0.116404384 0.17124219 0.230992
-0.18784113 -0.09152313 -0.12725362 -0.052918233 -0.21960571 -0.27527174 -0.08934425 0.010053851
0.14644969 0.05474241 -0.08641294 -0.27791777 0.18047382 -0.12582588 -0.2600345 -0.20223714
-0.005541087 0.18439667 0.03699127 0.16065593 0.022102175 0.2924073 0.20420098 -0.0142056625
-0.088821605 -0.22752996 0.2513036 -0.25426546 -0.28615922 -0.11549881 -0.15855852 -0.14289518
0.096520565 0.24015166 -0.11357524 -0.21142304 0.09102635 -0.22455722 -0.09235633 -0.28231043
-0.04515315 0.10699672 -0.1475705 -0.032042548 0.28341535 -0.19946149 0.1775408 -0.26074016
-0.19470935 0.20377976 -0.2598765 0.16947198 0.29017213 -0.18998855 0.0001763614 0.13432187
0.18902105 0.13297558 0.22139396 -0.18840624 -0.291965 -0.250359 -0.2544995 0.2508
-0.143213 -0.2686968 -0.07667398 0.19216278 -0.1852025 -0.044005387 0.24152769 -0.09410643
-0.0043738303 -0.103813335 0.20979168 0.07438629 0.04574432 -0.097167954 0.28579196 0.17624891
0.18959004 0.16015986 -0.12589292 0.16065504 0.26154795 -0.30318436 -0.20641576 -0.06341133
0.27770835 0.08335914 -0.20436747 -0.14582658 -0.10990591 -0.13701548 0.028989483 0.2769903
0.0906207 0.14581977 -0.24321914 -0.29260436 0.15987971 -0.19349734 0.09736993 0.1905185
-0.08082397 -0.04008156 0.18178183 0.27198422 0.12418125 0.19686416 0.28181127 -0.27564952
0.04300945 -0.18857212 -0.13998196 0.2730574 -0.13572928 -0.18411 0.28424677 0.0974253
0.25933412 0.2967889 0.15200192 -0.2588146 -0.0011861199 -0.26892608 0.14452305 -0.08614958
-0.034052383 0.22906713 0.05661831 -0.17592992 -0.11924244 0.053682536 0.21178411 -0.18810107
0.0030512384 0.11493825 0.18182118 0.3048833 -0.15884355 -0.24370651 0.085599124 0.14466752
-0.0043765865 0.21475746 0.070315994 0.056420375 -0.083455406 -0.18718232 -0.094972305 0.24836417
-0.16309611 -0.12742715 -0.00623769 0.039105285 -0.023527997 0.0054749926 0.10086917 0.013577879
0.17620529 -0.0335756 -0.027974095 -0.2527245 0.19534424 0.106542006 -0.22682936 -0.16323145
0.30392712 0.018075196 0.27223927 -0.30055586 0.16863555 0.04056362 -0.11269845 0.053176295
0.091361344 0.2957029 0.2651875 -0.2964076 0.054556895 -0.012280993 0.09073736 0.25018078
0.115523174 -0.29711378 -0.07209387 0.016816594 0.21403942 0.14305148 -0.04244408 -0.16890599
0.015297712 0.19325751 0.2858988 0.2371252 -0.12888445 -0.19853899 -0.28507486 -0.0032014432
0.099566825 0.25738567 0.12040245 0.094388835 -0.24729714 -0.10855397 0.14817318 -0.10046623
-0.20679775 0.09427484 0.28653088 0.01616025 0.15649557 -0.22061223 0.0010154694 -0.14774747
0.15846851 0.16671269 0.12277863 -0.28494182 -0.014959874 -0.24081023 0.3021231 -0.17485796
0.031373203 0.017072171 -0.24282806 0.09038496 -0.1593473 0.033717345 0.18924119 0.11229366
-0.16569667 0.17205358 0.26242658 -0.1402323 0.111192934 0.24772996 -0.08836199 -0.0047206585
-0.1769925 -0.18483944 0.11967897 -0.09993863 -0.075978294 0.11033613 0.18762152 0.22195005
00000000: 92bf 2a3e 120f 813e 56b0 8f3e b974 85bc
00000010: 80b6 5fbd 6c65 eebd 1d5a 2f3e 2b89 6c3e
00000020: 6d59 40be 7b70 bbbd c64e 02be cac0 58bd
00000030: 52e0 60be 6bf0 8cbe 1efa b6bd e8b8 243c
00000040: e8f6 153e 9439 603d 44f9 b0bd 3d4b 8ebe
00000050: 21ce 383e 80d8 00be 3e23 85be 4117 4fbe
00000060: 0292 b5bb 7bd2 3c3e 2884 173d fd82 243e
00000070: 9f0f b53c 69b6 953e 101a 513e debe 68bc
00000080: 1ae8 b5bd 9dfd 68be deaa 803e 152f 82be
00000090: 7683 92be a48a ecbd 2a5d 22be 1d53 12be
000000a0: 93ac c53d 51ea 753e 239a e8bd 487f 58be
000000b0: 066c ba3d 54f2 65be 5125 bdbd fe8a 90be
000000c0: 82f2 38bd 1921 db3d b91c 17be 0c3f 03bd
000000d0: d11b 913e a23f 4cbe 41cd 353e bc7f 85be
000000e0: e361 47be a4ab 503e 880e 85be 108a 2d3e
000000f0: 7191 943e 5c8c 42be a7ed 3839 ac8b 093e
00000100: bc8e 413e c02a 083e 19b5 623e 91ed 40be
00000110: 707c 95be 0e2f 80be c24d 82be dc68 803e
00000120: 6ea6 12be a192 89be 3f07 9dbd 52c6 443e
00000130: b9a5 3dbe fe3e 34bd 0953 773e dfba c0bd
00000140: 5952 8fbb 169c d4bd a1d3 563e d757 983d
00000150: 655e 3b3d feff c6bd 5353 923e 987a 343e
00000160: e423 423e f200 243e 13ea 00be c182 243e
00000170: 9de9 853e fb3a 9bbe a75e 53be cddd 81bd
00000180: ca2f 8e3e 32b8 aa3d b545 51be 9053 15be
00000190: 5a16 e1bd c94d 0cbe 5a7b ed3c acd1 8d3e
000001a0: 5897 b93d c751 153e 700e 79be 3dd0 95be
000001b0: 82b7 233e 2b24 46be e369 c73d 4817 433e
000001c0: 0a87 a5bd 902c 24bd 0425 3a3e 8441 8b3e
000001d0: bd52 fe3d c296 493e 9149 903e ef21 8dbe
000001e0: ad2a 303d 0d19 41be 6e57 0fbe 2ece 8b3e
000001f0: 9efc 0abe 5587 3cbe cb88 913e ea86 c73d
00000200: 71c7 843e b7f4 973e 64a6 1b3e 5983 84be
00000210: 9477 9bba aeb0 89be dafd 133e 316f b0bd
00000220: 837a 0bbd 9390 6a3e 9ae8 673d f926 34be
00000230: 6135 f4bd 38e2 5b3d efdd 583e 919d 40be
00000240: 49f7 473b bf64 eb3d 552f 3a3e aa19 9c3e
00000250: e2a7 22be 338e 79be 984e af3d b923 143e
00000260: 7869 8fbb 61e9 5b3e d501 903d 0d19 673d
00000270: abea aabd b9ac 3fbe d780 c2bd 2d53 7e3e
00000280: ab02 27be 437c 02be 8965 ccbb dd2c 203d
00000290: c9bd c0bc 9167 b33b 7f94 ce3d c175 5e3c
000002a0: 296f 343e 9186 09bd ee29 e5bc 1b65 81be
000002b0: 5208 483e b232 da3d f545 68be 2526 27be
000002c0: 569c 9b3e 6f12 943c f262 8b3e 75e2 99be
000002d0: ccae 2c3e 0a26 263d 72ce e6bd 63cf 593d
000002e0: a81b bb3d 5f66 973e a8c6 873e bdc2 97be
000002f0: 0d77 5f3d 3836 49bc 82d4 b93d b217 803e
00000300: 6a97 ec3d 4c1f 98be f3a5 93bd f4c2 893c
00000310: 262d 5b3e 167c 123e d8d9 2dbd b1f5 2cbe
00000320: 41a3 7a3c 4ce5 453e 5461 923e f3d0 723e
00000330: 49fa 03be ce4d 4bbe 55f5 91be 4ecf 51bb
00000340: b1e9 cb3d 0ec8 833e 8f95 f63d ef4e c13d
00000350: 763b 7dbe 8b51 debd b6ba 173e 3dc1 cdbd
00000360: cac2 53be 2b13 c13d 2db4 923e 8062 843c
00000370: 6040 203e 2ce8 61be 8019 853a 1d4b 17be
00000380: 9245 223e bbb6 2a3e 5d73 fb3d e5e3 91be
00000390: 421a 75bc f596 76be e1af 9a3e f70d 33be
000003a0: 3081 003d f0da 8b3c eba7 78be c01b b93d
000003b0: f02b 23be 331b 0a3d 71c8 413e 38fa e53d
000003c0: 63ac 29be d02e 303e c75c 863e 0e99 0fbe
000003d0: 1fb9 e33d ecac 7d3e 22f7 b4bd c1af 9abb
000003e0: 863d 35be 8d46 3dbe 3f1a f53d a0ac ccbd
000003f0: 829a 9bbd e9f7 e13d db1f 403e e046 633e

model.gnn.0.lin_r.bias f4 [32]
0.044775944 0.11793493 -0.17706874 0.015934855 0.0068567623 0.03493435 -0.14686352 0.117326014
-0.16767876 -0.011643452 0.12904419 0.0202215 -0.13890962 0.04340442 0.045040067 -0.037160084
-0.12872124 0.11823345 0.07891039 0.07666144 0.06213636 0.104486704 0.0960888 0.040158007
0.028770965 0.014210303 0.025422765 -0.1390663 -0.09746985 -0.17582932 0.052797426 -0.16554013
00000000: fb66 373d de87 f13d 8251 35be d089 823c
00000010: b1ae e03b 5217 0f3d 6463 16be 9f48 f03d
00000020: fbb3 2bbe 2dc4 3ebc 2924 043e 8fa7 a53c
00000030: 533e 0ebe d5c8 313d ef7b 383d 2c35 18bd
00000040: 80cf 03be 6124 f23d c59b a13d ac00 9d3d
00000050: b282 7e3d 20fd d53d 34ca c43d b97c 243d
00000060: 16b1 eb3c 55d2 683c 6743 d03c 6567 0ebe
00000070: 469e c7bd 9a0c 34be 1d42 583d 5a83 29be

model.gnn.1.att f4 [1, 1, 32]
-0.42583078 -0.031020852 0.06029176 -0.11694324 -0.009898581 0.35562873 -0.17514825 -0.223179
0.042689674 -0.12724681 -0.12432229 0.26775944 -0.21774878 -0.06892821 0.26307055 -0.41751254
-0.06722288 0.35425732 0.16245994 -0.31629395 0.15730736 0.23753466 0.0999073 0.23801702
0.24725595 0.12027177 -0.27331498 -0.23393142 -0.10836356 -0.1503392 0.4299817 0.40233362
00000000: 7e06 dabe 711f febc 7ef4 763d f07f efbd
00000010: a82d 22bc f814 b63e 105a 33be 0989 64be
00000020: 5edb 2e3d fd4c 02be af9c febd c417 893e
00000030: 89f9 5ebe 3c2a 8dbd 2fb1 863e 34c4 d5be
00000040: 26ac 89bd 3761 b53e e65b 263e 48f1 a1be
00000050: 2e15 213e 493c 733e 339c cc3d bcba 733e
00000060: aa30 7d3e 0c51 f63d f1ef 8bbe b88b 6fbe
00000070: b7ed ddbd 85f2 19be 9026 dc3e acfe cd3e

model.gnn.1.bias f4 [32]
-0.019246781 0.0057048844 -0.026750127 -0.016993217 -0.008560486 0.028528903 0.021338245 0.03062902
0.004273667 -0.009799691 0.028539702 -0.022280123 0.036788013 0.02666379 -0.015436316 -0.035046812
0.024136461 0.029902007 0.011751992 0.0029165037 0.007851143 -0.028230475 -0.037740264 0.035595044
-0.032189894 0.021703335 -0.015195341 -0.005361057 0.025201112 0.048970032 0.025344977 -0.003533057
00000000: 6dab 9dbc 0af0 ba3b 1523 dbbc 5c35 8bbc
00000010: 4841 0cbc 72b5 e93c 8bcd ae3c b6e9 fa3c
00000020: 1e0a 8c3b e28e 20bc 18cc e93c ce84 b6bc
00000030: 07af 163d 056e da3c 9ae8 7cbc 3f8d 0fbd
00000040: d4b9 c53c 0ef5 f43c 6d8b 403c d022 3f3b
00000050: 15a2 003c 9943 e7bc 8995 1abd 1ccc 113d
00000060: 8dd9 03bd 31cb b13c e1f5 78bc ceab afbb
00000070: 9072 ce3c cd94 483d 45a0 cf3c dc8a 67bb
